docker/files/amyloid.ckpt (torch, 517222 bytes, 18 tensors)

encoder.0.weight f4 [190, 114]
000000 a8 d5 0c 3d 02 af 59 3c ea eb ce 3b 4b 5b 91 bc
       0.034383446 0.013286354 0.0063147442 -0.017743727
000010 b4 85 91 3d c1 17 d8 3d bc 21 16 bd 70 27 4e bd
       0.0710558 0.10551406 -0.036653265 -0.05033058
000020 fd df 9d be cd 42 0d bc b4 0f b5 3b b0 dd 83 3d
       -0.30834952 -0.008621884 0.0055255536 0.06438768
000030 b7 f8 36 bc 14 7b 1b 3c 13 18 a2 bc a9 94 1f 3c
       -0.011167697 0.009489793 -0.01978687 0.009740033
000040 b6 c6 9d bc 10 70 aa bc 47 ec 26 bc 63 34 28 bd
       -0.019259792 -0.020805389 -0.010188169 -0.041065585
000050 e7 e6 83 bd db 5d cd 3c f7 1d ab 3d f9 c5 b4 3c
       -0.064405255 0.025069168 0.08355325 0.022067057
000060 81 c0 fe 3b b8 fa e0 bc b6 d0 35 3c 82 ed 4b 3d
       0.007774413 -0.027463302 0.011097124 0.049787052
000070 62 92 9d 3a 73 76 18 bd 04 5c 04 bb 53 24 a2 bc
       0.0012021775 -0.037222337 -0.0020196447 -0.019792711
000080 e4 4f 3c 3c ba 47 aa bc ea 4a ac 3a f8 3b c3 bb
       0.011493657 -0.020786155 0.0013144885 -0.0059580766
000090 80 b6 49 3a 01 81 77 3c 95 bc 9b 3d 17 47 40 3c
       0.0007694736 0.0151064405 0.076043285 0.011735699
0000a0 1f a2 c3 bc c0 6c 16 3d bc 05 b8 3a c6 69 42 3d
       -0.023881016 0.036724806 0.0014039795 0.047464155
0000b0 41 da 8e bc b2 e9 66 bc 34 b1 08 bd 21 04 e9 bc
       -0.017438056 -0.014093803 -0.03337212 -0.028444352
0000c0 10 1d 89 bb 98 0d 34 bc 2f 68 09 bb 49 a7 e4 bc
       -0.0041843727 -0.010989569 -0.002096664 -0.027911799
0000d0 08 13 23 3d de 99 ec bc 0e e0 91 3c 0f c6 17 3b
       0.03981307 -0.028881963 0.017807033 0.0023158824
0000e0 9a 90 33 3c 9a f0 d7 bb f9 9b c3 3c 49 76 40 bd
       0.010959769 -0.0065899612 0.023878084 -0.046987806
0000f0 5d d3 02 bc 69 d9 8a bb 9b b1 a3 3a f4 f0 a2 3c
       -0.007984963 -0.004237343 0.0012488844 0.019890286
000100 15 43 34 3d 1f 43 ea bc 1d 2b 51 3b 01 97 b9 3c
       0.044009287 -0.028596459 0.0031916567 0.022655012
000110 63 29 ad 3b dc 19 93 bb f4 af 16 bb 46 fb b5 bb
       0.0052844747 -0.0044891667 -0.002299306 -0.005553636
000120 01 27 b5 bb 46 47 da 3c 50 43 13 bc e4 b8 c1 3c
       -0.0055283313 0.026645314 -0.0089882165 0.023647733
000130 a2 09 ba 3c 1d b3 28 bc f3 84 e4 3a ef 32 c9 3b
       0.022709671 -0.01029661 0.0017434641 0.006140105
000140 15 a9 f7 3b 5f 80 57 bc 59 3b de 3b a0 1f 18 bd
       0.007557998 -0.013153165 0.006781977 -0.037139535
000150 7f aa 0d 3d cf 32 20 bc 2c a6 f4 3c d8 36 02 3d
       0.034586426 -0.009777739 0.029864393 0.031790584
000160 23 e3 3f 3d bc b5 21 3d 43 8d 1f 3c de ec 8b 3c
       0.046847474 0.039479956 0.009738269 0.01708072
000170 fe 47 7a 39 ec 1d 22 3c 83 63 91 3b 0d 1b 8b 3d
       0.00023868677 0.009894829 0.0044369115 0.06792269
000180 ee 6a 17 3d be 64 04 bd cd db 9b 3c 7d 5a 21 3b
       0.03696721 -0.032322638 0.019025708 0.0024620586
000190 29 88 97 3c 7c f2 1d 3b e9 fc 62 3c fa 43 32 bc
       0.018497543 0.002410083 0.013854244 -0.010880465
0001a0 10 64 c5 3a 5c 11 6d 3c 49 64 e1 bc 66 cf b4 3c
       0.0015059728 0.014469471 -0.02751364 0.022071552
0001b0 d7 95 6e 3c c8 94 68 3c 75 29 17 3d 74 0f 37 3d
       0.014562092 0.014195628 0.03690477 0.04469247
0001c0 ed a5 95 3c 72 a9 1b 3c 94 b6 09 bb e8 54 03 ba
       0.018267596 0.009500848 -0.0021013366 -0.00050099054
0001d0 a0 e2 01 bb 65 42 1d 3b 0e a0 d3 3a f4 5e e9 b9
       -0.0019818917 0.0023995873 0.0016145722 -0.0004451197
0001e0 53 48 7f 3b c7 14 03 bb 36 16 a1 ba 87 f9 b2 b9
       0.003895302 -0.0020001398 -0.0012289945 -0.00034136718
0001f0 69 a1 09 bb 54 2a 6b 3a 9a 72 92 ba 9c ad 35 bb
       -0.002100075 0.0008970846 -0.001117307 -0.0027721887
000200 7a 8c 79 bb 07 39 84 ba 0a 7a 6b 3a 36 35 e5 ba
       -0.0038078115 -0.0010087796 0.0008982724 -0.0017487172
000210 51 4c 42 3b aa 48 02 ba 9f 4d 1e 3a 8e 68 80 b9
       0.002964754 -0.0004969934 0.0006038788 -0.00024491962
000220 12 04 e9 3a ac 2d 8a ba 41 51 40 bb c5 16 91 b9
       0.0017777702 -0.0010542176 -0.0029345306 -0.0002767352
000230 b0 a4 0d bb 69 32 7a 3a 37 93 a0 38 34 8b 42 b9
       -0.0021613054 0.0009544255 7.6568154e-05 -0.00018553139
000240 9a f1 82 39 27 7d b4 ba 24 12 d4 3a 7a 67 ec 36
       0.0002497554 -0.0013770208 0.0016179723 7.0453943e-06
000250 27 31 91 ba e1 35 f6 39 d2 9d 8d bb 4b 70 e1 ba
       -0.0011077271 0.0004696092 -0.004321792 -0.0017199604
000260 68 3a 02 ba 63 af 0d 3a e5 2c 56 3a ff e3 03 3b
       -0.00049678097 0.0005404858 0.0008170142 0.002012491
000270 51 0b 67 bb 88 fd 62 ba c7 50 1f ba c7 79 83 ba
       -0.0035254548 -0.0008658995 -0.00060774054 -0.0010030799
000280 6b 1d d6 ba 84 a8 aa b9 70 33 d0 b9 43 07 ea b9
       -0.0016335672 -0.0003255048 -0.00039711175 -0.00044637368
000290 39 24 2c 3a 71 31 53 3a b3 ed 1f 3b 2d 98 4e 3a
       0.0006566677 0.00080563786 0.0024403154 0.00078809523
0002a0 2d a2 4c b9 24 e5 da ba bc 0f 1b bb a9 f9 8d ba
       -0.00019515371 -0.0016700369 -0.0023660501 -0.0010831851
0002b0 e5 5d 19 ba 47 24 39 ba 30 ae 68 ba f2 50 50 3a
       -0.0005850478 -0.00070625957 -0.00088760536 0.0007946632
0002c0 9d f3 97 ba 95 6f e2 ba 5f af e6 ba 50 72 83 ba
       -0.0011592988 -0.0017275686 -0.0017599872 -0.0010028575
0002d0 87 fc e8 39 a6 21 f1 b7 92 05 2f 37 b4 a9 26 3a
       0.00044438636 -2.8745108e-05 1.043211e-05 0.0006357685
0002e0 cc 77 e0 3a 15 08 cf ba fb c0 ff ba 12 9c 9b ba
       0.0017125546 -0.0015795255 -0.0019512469 -0.0011872074
0002f0 c3 f7 53 ba 09 a8 26 3a d8 ab 8f 3a 0b cb 60 b9
       -0.00080859306 0.00063574367 0.0010961248 -0.00021437944
000300 da 0a 93 ba 96 81 04 ba 40 90 fd b8 a0 ec c3 39
       -0.0011218444 -0.000505471 -0.00012090849 0.00037369598
000310 0f 10 d0 ba 41 0c 01 3b d1 af 1d bb d8 1b 02 3a
       -0.0015873926 0.0019691142 -0.0024061094 0.00049632555
000320 c3 11 f5 3a c6 b6 bf b9 a2 52 08 ba c9 57 a2 ba
       0.001869731 -0.00036566536 -0.00052003015 -0.0012385781
000330 28 34 bc ba 59 e4 62 ba 33 99 90 b9 13 b1 4d 3a
       -0.0014358805 -0.0008655242 -0.00027579963 0.00078465155
000340 fa 8d 63 bb 99 83 51 bb 33 be 37 bb 6f 23 d5 3a
       -0.0034722076 -0.0031969307 -0.0028036952 0.001626117
000350 18 92 00 ba fc e6 7d ba 95 c5 27 3a dd 39 9b ba
       -0.0004904582 -0.00096856034 0.00063999865 -0.0011842806
000360 b5 c7 6e ba df 3e cd ba 3f 2e b7 b8 c9 09 cd ba
       -0.0009108738 -0.0015658996 -8.734734e-05 -0.0015643175
000370 02 d8 f7 ba 55 61 de 3a 84 79 2c ba 47 54 b1 ba
       -0.001890898 0.0016966263 -0.00065793865 -0.0013529145
000380 72 51 00 b8 61 c6 f6 ba 2c 2f 11 ba 41 c8 4a ba
       -3.059343e-05 -0.0018827432 -0.000553834 -0.00077355286
000390 99 1b d8 39 d0 19 18 bb d3 29 ae 3a 9d fa 39 bb
       0.00041219292 -0.0023208745 0.0013287611 -0.0028378137
0003a0 b0 02 0b 3b 0f 89 23 ba c0 5c 0e b9 3c 82 b0 39
       0.0021211319 -0.000623838 -0.00013576727 0.00033666368
0003b0 b2 bf 8b ba 3f cc f1 ba 66 77 a0 ba 6a 3a 8f b9
       -0.0010661988 -0.0018447711 -0.0012242615 -0.00027318607
0003c0 c3 8a 30 3a c9 64 0f 3b f8 bf 83 ba e3 9c 7a bb
       0.00067345443 0.002188014 -0.0010051718 -0.0038240484
0003d0 3c eb a9 ba bd 16 d9 ba b0 c9 85 39 b4 97 1b ba
       -0.0012963782 -0.0016562563 0.00025518006 -0.0005935386
0003e0 b4 54 30 ba b6 34 e9 b6 45 28 16 ba 33 21 d2 ba
       -0.0006726489 -6.9500775e-06 -0.00057280465 -0.0016031623
0003f0 da ae 17 b8 f3 68 c2 ba 33 39 f6 ba d0 2b bf ba
       -3.616405e-05 -0.0014832303 -0.0018785357 -0.0014585201

encoder.0.bias f4 [190]
000000 d3 d9 f4 3c 01 33 47 ba 09 16 1d ba 17 73 c3 3d
       0.029889023 -0.0007598848 -0.0005992358 0.09543436
000010 00 00 00 00 2e 94 1c ba 3b 1a 9b 3d 00 00 00 00
       0.0 -0.0005973008 0.075733624 0.0
000020 55 b4 1c ba 6d 9c c6 3c d6 28 ea 3d c9 55 b5 3d
       -0.00059777993 0.024244512 0.1143357 0.08854253
000030 71 bc fd 3d 30 e6 6b 3d 72 02 82 3d 00 00 00 00
       0.12389458 0.05759257 0.06348123 0.0
000040 c9 47 1d ba 22 ff b7 3d 6a 05 f3 3d d0 de f4 3d
       -0.00059997715 0.089842096 0.11866267 0.119565606
000050 b5 0f 6f 3c 00 00 00 00 16 e8 fd 3d d4 07 35 3c
       0.014591147 0.0 0.123977825 0.01104923
000060 c0 c7 e3 3c 73 12 af 3c d2 56 29 ba 8d 93 16 3d
       0.02780521 0.021371102 -0.00064597756 0.03676181
000070 12 96 d9 3c 56 60 34 ba 00 00 00 00 8a e3 e5 3d
       0.026560817 -0.000688081 0.0 0.1122504
000080 c0 30 1d ba 7d f0 01 3e 6a ba 0b 3e 2d 5e 1d ba
       -0.0005996339 0.12689395 0.1364533 -0.0006003108
000090 00 00 00 00 52 d7 ec 3c 73 56 4d 3d 26 b9 04 3d
       0.0 0.028911266 0.050131273 0.032403134
0000a0 e2 c0 d2 3d 89 75 cd 3d de e0 f5 3d e8 e2 0e ba
       0.10290696 0.10032184 0.12005781 -0.0005450682
0000b0 4c 0e 21 3d c5 d7 e2 3d 19 64 1d ba fe 64 1d ba
       0.039320275 0.11076311 -0.00060039904 -0.0006004124
0000c0 aa 9d 9f 3d 13 89 22 ba d1 43 f9 3d ce d8 27 ba
       0.07793744 -0.0006200235 0.12171138 -0.0006402851
0000d0 dd 80 2e ba 42 dd 62 3d 9c 66 ea 3c d2 c2 c5 3d
       -0.00066567754 0.05538679 0.028613381 0.096563
0000e0 e8 57 1d ba 00 00 00 00 ae 4d e5 3d ce c0 f3 3d
       -0.0006002174 0.0 0.11196457 0.11902009
0000f0 00 00 00 00 b4 9a c0 3d 66 47 09 3e 00 00 00 00
       0.0 0.09404507 0.13406143 0.0
000100 a0 d2 09 3e 30 ff 5f 3d 77 49 3c 3d be 35 0d 3e
       0.13459253 0.054686725 0.0459685 0.13790032
000110 a9 f8 71 3c 66 3f f0 3d 6b 03 a6 3c 65 61 c0 3c
       0.014768758 0.11730842 0.020265302 0.023483941
000120 57 d7 13 3d 7e 5a 16 ba 7b 60 48 3d 1f 2b be 3c
       0.036094036 -0.000573553 0.048920136 0.023213921
000130 bd 3d 18 ba 00 00 00 00 98 3e d3 3d 7b 9e f4 3d
       -0.00058075396 0.0 0.10314673 0.1194429
000140 cf 06 96 3c 97 7f d2 3d 63 ff ad 3d cc 36 59 3d
       0.018313793 0.10278242 0.08495977 0.053030774
000150 72 8c 08 3e 8a fc 26 3d 46 71 46 ba 56 69 1d ba
       0.13334826 0.040768184 -0.00075699796 -0.0006004771
000160 af 2a 0e ba 8d e3 0d 3e d9 73 ca 3d 43 01 11 ba
       -0.00054232305 0.13856335 0.098853774 -0.0005531499
000170 00 00 00 00 3e 06 00 3e 5c 66 c3 3d fa 52 26 ba
       0.0 0.12502381 0.09541008 -0.0006344762
000180 c6 8f e6 3d 54 e6 c4 3d 88 87 40 3d 00 00 00 00
       0.11257891 0.09614244 0.047004253 0.0
000190 20 79 23 ba 00 00 00 00 00 00 00 00 ce 9d 1b ba
       -0.00062360056 0.0 0.0 -0.00059362955
0001a0 60 fc 27 ba 32 f7 a5 3d 4b 4a 23 ba ec 85 00 3e
       -0.0006408151 0.081037894 -0.0006229027 0.12551087
0001b0 53 fd 1f ba bc 5d 2e ba 60 1f 0a 3e fe a7 30 3d
       -0.0006103117 -0.0006651541 0.13488531 0.04312896
0001c0 5a c5 be 3c 40 db dd 3d 96 50 d9 3d af 1c 09 ba
       0.023287464 0.10832834 0.10611074 -0.00052304094
0001d0 b6 a3 f5 3d d5 7c 6d 3d 06 4c c1 3c 29 01 3a 3c
       0.11994116 0.057980377 0.023595821 0.011352816
0001e0 d6 e4 05 ba c8 35 85 3c 38 ba f6 3c c7 2b 25 ba
       -0.00051076466 0.016260996 0.030118093 -0.0006300774
0001f0 80 7f 09 ba 76 7d d5 3d 4b ca 14 ba c8 bc bb 3d
       -0.0005245134 0.104243204 -0.0005675896 0.091668665
000200 b7 cb d4 b9 7d 88 f9 3c 6b 51 1d ba e5 53 1d ba
       -0.0004058757 0.03046059 -0.0006001207 -0.0006001576
000210 07 02 c4 3d 49 f8 20 ba 1b ee b5 3d 00 00 00 00
       0.09570699 -0.0006140513 0.08883306 0.0
000220 00 00 00 00 6f fe 84 3d 23 e8 2b 3d 55 d4 22 ba
       0.0 0.06493842 0.04196943 -0.00062114495
000230 4a 21 ea 3d 20 0e ba 3d 3f 01 1d ba 60 d7 3c ba
       0.11432131 0.090847254 -0.00059892604 -0.0007203724
000240 7b 1f 35 3d 46 47 09 3d f4 3b 1b 3d 6a df de 3c
       0.044219475 0.033515237 0.037898973 0.027206142
000250 e6 e2 37 3d 9d 58 87 3d a8 a6 1b ba 44 43 b1 3d
       0.04489412 0.066086985 -0.00059376145 0.08655408
000260 9f 0f 59 3d 84 3b a1 3c 0d 71 bc 3d 9c 6a 1d ba
       0.052993413 0.0196817 0.0920125 -0.0006004961
000270 65 a6 7f 3c 00 00 00 00 00 00 00 00 59 3f 19 3d
       0.015603636 0.0 0.0 0.03741393
000280 2b 7a 08 3d e1 0c de 3d cc 0c 68 3d 74 63 1d ba
       0.033319633 0.108423 0.05665283 -0.00060038944
000290 00 00 00 00 96 88 1c ba 1e 10 d2 3d b8 34 ba 3d
       0.0 -0.00059712806 0.1025698 0.090920866
0002a0 dc f0 3f ba 5a a1 06 3e 54 85 14 ba 61 5f 1d ba
       -0.00073219626 0.13147488 -0.00056656194 -0.0006003287
0002b0 d2 71 f4 3c 30 6f d9 3c 91 0d 07 ba 2d 28 cc 3d
       0.02983943 0.026542276 -0.0005151863 0.099686004
0002c0 3c 47 28 ba bb 66 1d ba 7d 6f 30 3d 75 b8 43 3d
       -0.0006419306 -0.0006004383 0.043075074 0.047783334
0002d0 a4 c0 2f 3d c0 bd 58 3d fd 06 e0 3d 88 3f 2f ba
       0.042908326 0.052915335 0.10938833 -0.0006685187
0002e0 8e a2 c7 3d 00 00 00 00 00 00 00 00 db e6 8b 3d
       0.09747802 0.0 0.0 0.068311416
0002f0 d5 82 11 3d 96 68 c5 3d
       0.03552516 0.09639089

regional_head.0.weight f4 [105, 190]
000000 5c d7 a3 3c e4 6d f4 39 0f 1e 53 3a de dc 23 3c
       0.020000152 0.00046621182 0.00080534903 0.010001389
000010 24 37 96 ba 5c f4 3d 3b 08 6f a3 3d e5 62 ba 3a
       -0.0011460525 0.002898476 0.07980162 0.0014220147
000020 f7 af 97 3a 97 35 a1 3c cb 31 b7 3d cf 4f 30 bc
       0.0011572827 0.019678874 0.08945044 -0.010761215
000030 a0 77 fd 3c 88 85 10 3d f0 f0 4a 3d b5 62 49 ba
       0.03094083 0.035283595 0.049546182 -0.000768225
000040 ee f9 28 ba 12 44 46 bd a8 28 89 3d d4 6f a2 3d
       -0.0006445934 -0.04840476 0.06697208 0.07931486
000050 9e 1e 59 3c 87 0e ef 39 3e ad 8a 3d 3b f4 20 3c
       0.013251929 0.00045596456 0.067713246 0.009823854
000060 60 e1 80 3c c0 46 57 3c 4d 4a 9b 39 43 0b ac 3c
       0.015732467 0.013139427 0.00029619262 0.021001464
000070 6f f6 9a 3c a8 30 ad 39 0a 59 a5 ba 56 30 97 3c
       0.018916337 0.00033033383 -0.0012615037 0.018455666
000080 8f 9e 36 bb 84 6f 2f 3d 7c ca 5a 3d 85 13 c3 ba
       -0.0027865504 0.04283096 0.05341576 -0.0014883137
000090 89 05 bd ba 42 d4 68 3c fe 60 05 3d 92 26 af 3c
       -0.0014421205 0.014210762 0.032563202 0.021380696
0000a0 45 40 b4 3d 82 94 81 3c 43 8d c0 3c de 53 b5 ba
       0.08801321 0.015817884 0.023504859 -0.0013834198
0000b0 72 e6 8c 3c e6 9b 81 3c eb c9 58 39 c8 0c 83 3a
       0.017199729 0.015821408 0.00020674586 0.0009998316
0000c0 b6 76 95 3d 96 e9 2f 37 41 8e dd 3c f5 56 e5 ba
       0.07298033 1.0485199e-05 0.027045371 -0.0017497229
0000d0 1d a9 d6 b9 c3 45 06 3d 6f a9 83 3c dd 08 87 3c
       -0.0004094326 0.032781374 0.016072003 0.016483719
0000e0 a0 88 bf 3a 5b c7 3e ba 7a 23 9b 3c 6e 18 56 3d
       0.0014612861 -0.0007277631 0.018937815 0.05226939
0000f0 ee 19 9f b9 10 8a 13 3c 25 0c f9 3c 74 e3 04 bb
       -0.00030346162 0.009005085 0.030401299 -0.0020277174
000100 ef 05 55 3d d7 19 0c 3d 8f 75 da 3c 26 86 3d 3d
       0.05200761 0.03420433 0.026667384 0.046270512
000110 06 e6 59 3c 80 53 c5 3c 23 d9 56 3c 2e e1 4b 3c
       0.013299471 0.024087667 0.013113293 0.012443824
000120 b2 69 8d 3c 16 d5 6c ba 4a b4 02 3d 11 28 96 3c
       0.017262314 -0.0009034438 0.03191022 0.018329652
000130 3e 0e f0 ba 53 01 bf 39 e2 3d 9b 3d 1a cc ee 3c
       -0.0018314791 0.00036431346 0.075801626 0.029150058
000140 a7 07 71 3c 3a 4c 79 3c 59 6d c1 3d 89 5c 12 3d
       0.014711297 0.015215928 0.094446845 0.03573278
000150 8e df 3c 3d 07 6a c8 3c bc 3d 0b 3b 98 f3 ef ba
       0.046111636 0.02446462 0.0021246513 -0.001830685
000160 56 19 88 38 82 c0 8c 3d 73 f8 88 3c e8 03 1d ba
       6.4897045e-05 0.068726555 0.016720032 -0.0005989657
000170 5f b0 8e ba 77 99 ec 3c 56 5d 50 3c 14 6b 77 3a
       -0.0010886303 0.028881771 0.0127175655 0.0009438258
000180 06 cd a0 3c 04 c6 42 3c 14 15 e8 3c d4 7f 84 ba
       0.019629013 0.011888031 0.028330363 -0.0010108897
000190 f7 35 86 ba be 22 d8 3a 99 7f 8c ba a8 a8 08 3b
       -0.0010239471 0.0016489846 -0.0010719179 0.002085248
0001a0 4e f9 31 3a 2c 27 a8 3d 37 32 12 3b af 73 4b 3d
       0.00067891635 0.082105964 0.0022307762 0.04967087
0001b0 61 54 89 ba e6 d2 99 3a 8f 52 11 3d 90 c7 f1 3c
       -0.0010477417 0.0011735826 0.035479125 0.029514104
0001c0 36 03 91 3c e1 7b 59 3c e8 ac 88 3c 12 57 d1 ba
       0.017701726 0.013274164 0.01668401 -0.0015971384
0001d0 a7 51 bc 3c df bc 17 3d 7c 0c 5e 3c 2a 91 46 3c
       0.022988154 0.037045356 0.013552781 0.012119571
0001e0 b7 96 d2 3a c1 bd 94 3c 18 70 a0 3c 20 c1 f7 3a
       0.0016066645 0.018156888 0.0195847 0.001890216
0001f0 1f b6 7c b9 f0 6a 92 3c da 90 5f ba 9e 56 4c 3c
       -0.00024100438 0.017873257 -0.00085283595 0.012471823
000200 27 f8 07 ba 3a 91 a0 3c 6d fc 8a 3a 20 42 27 3b
       -0.0005186819 0.0196005 0.0010603793 0.0025521591
000210 81 0f 81 3c bc 53 3c 39 ef fe 93 bb bb 3c 2c 3b
       0.015754463 0.0001796027 -0.0045164744 0.0026281315
000220 06 f0 f3 ba 02 7e 68 3d fa 30 e2 3c 20 ab 58 ba
       -0.0018610961 0.056760795 0.027611244 -0.00082652457
000230 1c 08 9c 3c 8f 34 5e 3b 39 cb d6 39 b0 1f ed b9
       0.019046836 0.003390584 0.00040968673 -0.00045227772
000240 82 9e 07 3d 33 1f 96 3c ab 97 d4 3c a6 cf 81 3c
       0.03311015 0.018325424 0.025951227 0.015846085
000250 05 2d ec 3c c8 a7 41 3d fd f9 b5 3a 90 e2 cc 3d
       0.02883006 0.04727915 0.0013883706 0.10004151
000260 f4 29 08 3d 5d ec 78 3c 5f 68 d9 bc 14 a3 1f b8
       0.033243135 0.015193072 -0.026539026 -3.8060432e-05
000270 31 85 47 3c 30 ce 1a 3b 74 f4 07 bb ac 64 b8 3c
       0.012177751 0.0023621432 -0.002074507 0.022508942
000280 ef e5 a9 3c c5 4a 43 3c 3f 68 38 3d 34 c1 5f 3b
       0.020739524 0.011919682 0.04502129 0.0034142258
000290 f2 b6 b5 ba 7a 85 96 ba 64 01 9b 3c b6 c4 3e bc
       -0.0013863726 -0.0011483871 0.018921562 -0.011643579
0002a0 f0 12 0b 3b c4 2c 70 3d 52 d3 07 3a 8f f9 7a 3a
       0.0021221004 0.05863644 0.00051813305 0.00095739303
0002b0 ee 1d b4 3c 02 4a 94 3c 24 c2 a0 3a fe a3 23 3c
       0.021986928 0.018101696 0.001226489 0.009987829
0002c0 a8 2d f4 3a 3a 7b 7d ba 17 e8 e6 3c ec 84 d6 3c
       0.0018629329 -0.0009669546 0.028186841 0.026186429
0002d0 c9 36 af 3c 53 5b 0b 3d 56 7c b3 3d 53 e8 21 3a
       0.021388428 0.03402264 0.087639496 0.00061762816
0002e0 de 06 62 3c da d0 21 ba bd 4f a9 ba 1a d5 5a 3d
       0.013795583 -0.0006172784 -0.0012917441 0.053425886
0002f0 b5 64 c5 3c da 64 5d 3c 79 af b2 3c 2a de fe 39
       0.024095872 0.013512814 0.021812188 0.0004861218
000300 74 c1 39 39 9f 9e 92 3c bd 22 86 3a 0a 9a 2d 3a
       0.00017715042 0.017897902 0.0010233741 0.000662238
000310 b2 94 fe bb b8 36 c7 ba 0b 98 9e 38 29 a8 ab 3c
       -0.0077691907 -0.0015198803 7.562347e-05 0.020954208
000320 c9 0d a6 bd 4e ce 93 3c 02 17 d6 3c a1 40 38 3d
       -0.08108098 0.01804271 0.026134018 0.04498351
000330 6f f9 96 3c ab 12 42 3a 54 8e 8a b9 b4 b6 31 3c
       0.018429486 0.00074032944 -0.00026427454 0.0108467825
000340 04 b9 b4 3d 86 2e c4 3c 39 f3 3e ba e2 4b 87 ba
       0.088243514 0.023947965 -0.0007284168 -0.0010322297
000350 ca 0a 1e 3d a8 97 af 3a 21 82 67 3c a0 f7 8e 3b
       0.038584508 0.0013396638 0.014130146 0.0043630153
000360 64 b2 94 39 a6 9a bc 3c 8c d9 17 3b 05 4d ea 39
       0.0002836167 0.02302296 0.002317044 0.00044689342
000370 45 60 8b b9 c8 f8 05 3c 2f 84 14 3b 37 db a6 3d
       -0.00026583872 0.00817699 0.0022661795 0.08147281
000380 b1 de ca 3a c5 10 5d 38 49 dc 77 b9 08 a4 f9 3c
       0.0015477744 5.2706124e-05 -0.00023637818 0.030473724
000390 2b d4 b6 3b 75 66 80 3c e6 87 3f bd 08 b7 06 3c
       0.0055794916 0.015673855 -0.046760462 0.008222349
0003a0 c6 3a c3 bb 2e 36 53 3a 61 51 f8 3c 36 87 02 3d
       -0.005957934 0.00080570846 0.030312242 0.03186723
0003b0 06 25 6c ba 4b 41 15 bb f4 4b 86 3d 44 27 21 3b
       -0.00090082025 -0.0022774513 0.06557456 0.0024590055
0003c0 d0 22 80 3c af f1 18 ba 71 aa 91 39 af 19 01 3c
       0.0156416 -0.00058343535 0.00027783544 0.007879659
0003d0 0e 73 4e 3b 59 c1 a1 3c 58 d7 3d bb 4c 75 f0 b8
       0.0031501683 0.019745516 -0.0028967466 -0.0001146594
0003e0 54 7e 20 bb 12 17 b4 bc 92 11 57 bb 40 bf b8 3c
       -0.002448936 -0.021983657 -0.003281687 0.022552133
0003f0 a2 a2 82 3d 2d 05 02 3b 35 39 ac 3c 6b eb c7 3c
       0.06378676 0.001983951 0.021023372 0.024404248

regional_head.0.bias f4 [105]
000000 cd 02 ae 3d 8b 0c 59 3c a5 f2 52 3d e2 a8 db 3d
       0.08496628 0.013247619 0.051500935 0.10725571
000010 f6 96 21 3e f7 65 8e 3d 00 1d e9 3c 64 69 ab 3d
       0.15780243 0.06953042 0.028456211 0.08369711
000020 ac 3e c8 3d 3e 16 1f 3d f7 c6 86 3d 5f 25 c8 3d
       0.09777579 0.03883957 0.06580918 0.09772753
000030 ee 2c 8b 3d 9d 03 90 3d 82 2c 8b 3c d5 d7 11 3d
       0.06795679 0.07031939 0.016988996 0.035606224
000040 78 c2 b5 3d 39 36 8a 3d 9a 67 e4 3c 29 66 b3 3d
       0.088749826 0.067486234 0.027881432 0.0875972
000050 4c 74 b1 3c 9c 90 4f 3d 90 44 ec 3d 06 c9 1b 3e
       0.0216619 0.05067502 0.11536515 0.15213403
000060 dd b6 ab 3d d7 c7 f3 3c 74 cd 8f 3d de dd c1 3d
       0.08384488 0.029758377 0.07021609 0.09466146
000070 d4 73 93 3d f7 c2 a8 3d bc 43 0c 3d 26 a3 d1 3d
       0.07199827 0.082403116 0.034244284 0.10236196
000080 65 09 94 3d e3 49 03 3d 78 ef 37 3d 92 90 27 3d
       0.07228354 0.032052886 0.04490611 0.040909357
000090 40 32 8c 3d 3a 1f 57 3d 77 70 4b 3d 27 61 2e 3d
       0.06845522 0.052520014 0.0496678 0.04257312
0000a0 6d 79 51 3d 0c 2b 8f 3d 18 43 cf 3c cf b8 34 3d
       0.05114119 0.069906324 0.025300547 0.04412156
0000b0 04 05 8c 3d 94 8a 8a 3d bc 7d 65 3d 9d fb 8b 3d
       0.06836894 0.06764713 0.056028113 0.06835101
0000c0 6e 8f 86 3d 81 0d 61 3d 68 fb 8c 3d ee 3e 2c 3d
       0.06570326 0.05494452 0.068838894 0.042052202
0000d0 19 ef 6c 3d e6 27 fa 3c af 25 7d 3d 53 7f 69 3d
       0.05784521 0.030536603 0.061803516 0.05700619
0000e0 88 b9 2c 3d c3 4a 16 3d 29 a7 33 3d d1 52 3c 3d
       0.042169124 0.036692392 0.04386059 0.045977417
0000f0 c9 ca 53 3d c9 00 4f 3d 81 71 2e 3d 50 56 4a 3d
       0.051707063 0.05053786 0.042588715 0.04939872
000100 72 5f 63 3d ed 8d b3 3c 1e 76 1e 3d f2 6f 20 3d
       0.055510946 0.021918261 0.038686864 0.03916926
000110 fa 83 86 3d 76 18 81 3d 8b b0 5d 3d e2 4b 31 3d
       0.06568141 0.06303494 0.054123443 0.043285258
000120 1e 7f 30 3d ce 44 74 3d a4 cb 00 3d ac 3f 1c 3d
       0.04308998 0.05963593 0.031444207 0.03814666
000130 97 3c 83 3d 20 ba 82 3d c9 62 47 3d ff 19 7f 3d
       0.06408041 0.06383157 0.048678193 0.06228065
000140 8e 44 6c 3d fe d4 71 3d 0b 78 95 3d 0c 3a 18 3d
       0.057682566 0.059041016 0.07298287 0.037164733
000150 91 cb 55 3d 1f 94 12 3d da 43 86 3d bf 81 5e 3d
       0.05219609 0.03578579 0.065559104 0.054322954
000160 98 6c 43 3d 6b 8f 00 3d 70 7c 0a 3d 6f 44 10 3d
       0.047710985 0.031386774 0.03381008 0.035221513
000170 84 7a 3d 3d 4e cb 39 3d 9c d1 2a 3d d9 68 37 3d
       0.046259418 0.045359902 0.041703805 0.044777725
000180 4b 84 63 3d 06 f4 e3 3c 2f c0 03 3d be 1e 12 3d
       0.055546086 0.02782632 0.032165702 0.03567385
000190 5d 3c 7b 3d b4 b4 6a 3d 78 b8 3f 3d f1 fd dc 3c
       0.061336864 0.05730124 0.046806782 0.026976557
0001a0 0c 31 04 3d
       0.032273337

positivity_head.0.weight f4 [2, 190]
000000 78 f6 6e bd cc ae 1f 3b 16 1c 19 3b 07 3a d0 3d
       -0.05834052 0.0024365662 0.0023362688 0.10167318
000010 0c 7f 6f ba bc 41 9f ba 71 7b 9c bd fb 7b 2c ba
       -0.0009136058 -0.0012150328 -0.07640732 -0.0006579754
000020 e5 b0 39 ba c0 4f 89 bd ba de ad bb 54 05 00 3e
       -0.0007083549 -0.06704664 -0.005306092 0.12502033
000030 8a 16 8d 3d 42 87 4d bd 3f f5 74 bd b5 24 f4 b9
       0.068890646 -0.05017782 -0.059804197 -0.00046566656
000040 7b 5a 02 bb c4 e1 11 3e 8d fb ab 3c 00 df 4b 3c
       -0.0019890356 0.14246279 0.020993972 0.012443304
000050 7c b2 99 bd 5f 92 9d ba 71 97 83 3c fe fa 9f bd
       -0.07504746 -0.0012021771 0.016063424 -0.07811545
000060 35 8d 81 bd ad 79 87 bd d2 97 b8 b9 4e ae 5b bd
       -0.06325761 -0.06615005 -0.0003520833 -0.053633027
000070 68 78 82 bd 8d 14 65 3a 89 e4 17 3b 80 b0 a4 3d
       -0.06370622 0.0008738719 0.002317699 0.08041477
000080 2d f5 50 3b 68 4f 2f 3d be c5 2d 3d a2 e4 39 ba
       0.0031884417 0.042800337 0.04242491 -0.0007091259
000090 37 39 8a ba 28 40 7c bd 46 da 51 bd 7a c0 68 bd
       -0.0010545616 -0.06158462 -0.051233552 -0.056824185
0000a0 f7 8c c6 bc e0 27 c0 3d fe 07 9d 3d 37 72 0a bb
       -0.02423714 0.093826056 0.0766754 -0.0021125206
0000b0 3b 75 65 bd c3 ff a6 3d a7 8a 21 ba 97 48 85 b9
       -0.056020003 0.081542514 -0.00061623234 -0.0002542182
0000c0 c0 32 89 bd 6a 65 50 ba e0 f4 a1 3d 87 b4 d7 39
       -0.06699133 -0.0007949682 0.07908034 0.000411425
0000d0 df c9 e0 b9 0f dc 48 bd ff f1 92 bd 8e 01 d0 3d
       -0.00042875015 -0.04903799 -0.07175063 0.101565465
0000e0 42 30 0b ba 5d 89 bf 3a db da ad 3d e6 55 f5 3b
       -0.000530962 0.0014613081 0.08489009 0.0074870465
0000f0 e4 13 14 ba 9a 7c d5 3d ed d2 81 3d 42 4f dc 39
       -0.0005648716 0.104241565 0.06339059 0.00042020722
000100 9b 20 69 3d 67 2b 5b bd 18 c2 51 bd 7b d8 72 3d
       0.05691586 -0.05350819 -0.051210493 0.059288483
000110 0c c4 95 bd a0 67 9f 3d 05 2b 8a bd 79 36 88 bd
       -0.073127836 0.07783437 -0.067464866 -0.06651015
000120 61 e2 5c bd 09 25 87 3a f9 34 52 bd a4 cb 87 bd
       -0.05392683 0.001031072 -0.05132005 -0.06630638
000130 99 5f bf 3a 0b 96 95 3b 52 fb 8c bc e7 9e 9d 3d
       0.0014600634 0.0045650057 -0.017209683 0.07696324
000140 72 bb 94 bd 98 b9 c1 3d fa c1 4c bd 9e 31 53 bd
       -0.07262315 0.09459227 -0.049989678 -0.05156099
000150 eb cd 30 3d 96 54 54 bd 9a f2 e0 ba 8b 03 2f 3b
       0.04316513 -0.05183848 -0.0017162145 0.0026704993
000160 bf e6 74 3b c8 14 d0 3c 06 08 c0 3d fa e1 22 39
       0.003736898 0.025400534 0.0937653 0.00015533707
000170 82 7f e7 ba b4 ca 99 3d d1 a4 d0 3d 5c 8c c0 3a
       -0.0017661902 0.07509366 0.10187686 0.0014690268
000180 79 da ab 3d 6f 3c d4 3d 07 2e 52 bd ee c9 64 ba
       0.0839128 0.10363089 -0.051313426 -0.00087275996
000190 c7 97 28 bb 46 74 8b ba 6d a8 04 ba 40 80 7d b9
       -0.0025725232 -0.0010639511 -0.0005060498 -0.00024175737
0001a0 00 9f a0 39 78 11 87 bd 11 5b 89 ba 07 9b 07 3d
       0.00030636042 -0.06595129 -0.001047941 0.03310683
0001b0 40 2b f1 ba d1 90 84 3a 93 86 89 3d 0d d5 6f bd
       -0.001839973 0.001011396 0.06715121 -0.05855279
0001c0 c2 94 8b bd 8a c0 bc 3d fe fe b6 3d ec 3a 70 b8
       -0.06815483 0.092164114 0.08935355 -5.7275334e-05
0001d0 c4 86 a0 3d d6 9b 4b bd d1 e8 7e bd f4 ca a1 bd
       0.078382045 -0.049709164 -0.06223375 -0.07900038
0001e0 25 38 32 3a ef 2a 95 bd b4 61 7e bd 47 27 fb 3a
       0.00067985273 -0.072835796 -0.062104896 0.0019161486
0001f0 8c bc ed ba 69 a7 b9 3d 1f 80 2a 3b f4 0c e4 3d
       -0.0018137856 0.09065134 0.0026016308 0.11135283
000200 09 3a 86 b9 2a 5c 87 bd ed 2d 18 39 7b 3b ac ba
       -0.0002560171 -0.06609376 0.00014512958 -0.0013140285
000210 00 5e d5 3d 01 b9 26 3a 0f 03 f9 3d 46 06 f8 3a
       0.1041832 0.0006359965 0.121587865 0.0018922768
000220 a6 58 10 bb d4 ed 5e bd d5 80 56 bd 45 c6 90 39
       -0.0022025495 -0.05442603 -0.052368958 0.00027613543
000230 02 6d a5 3d bc 55 f8 3d e0 fb 86 3a 1a 74 96 ba
       0.08077432 0.121257275 0.0010298453 -0.0011478693
000240 6b 5c 46 bd b1 28 77 bd 31 1c 55 bd ea 51 7c bd
       -0.04842798 -0.06034154 -0.05202884 -0.061601557
000250 b2 a7 55 bd ca 4e 87 bd 91 9e 43 3a 9f f9 5f bd
       -0.05216188 -0.06606825 0.0007462288 -0.054681417
000260 56 6e 4f bd a5 e7 8d bd b2 ed 00 3e 4d bc 13 3b
       -0.050642334 -0.06928948 0.12590674 0.0022542656
000270 a1 93 95 bd b4 c6 ab ba 7b 4c b5 ba 16 b6 6d bd
       -0.073035486 -0.0013105483 -0.0013831997 -0.05803498
000280 11 85 6b bd 85 51 bc 3d 8a ba 69 bd 18 3e 0c 3b
       -0.05749995 0.09195236 -0.057062663 0.0021399315
000290 0e 0c 8a 38 fe 13 0f 3b a9 32 ba 3d 54 3c ee 3d
       6.582598e-05 0.0021831985 0.09091694 0.116326004
0002a0 dc 5b c8 39 56 ce 35 3d 84 bd 48 bb b5 41 9d 3a
       0.00038215413 0.04438623 -0.0030630538 0.0011997732
0002b0 34 14 73 bd 7c 24 83 bd 44 97 72 ba 60 cd c8 3d
       -0.05934544 -0.06403443 -0.0009254108 0.09804797
0002c0 cf f7 32 ba a6 6b c0 ba 1f 35 67 bd f0 2a 6a bd
       -0.00068270875 -0.0014680519 -0.056447145 -0.057169855
0002d0 52 c3 61 bd aa 7d 53 bd d0 00 fa bb 15 31 b2 3a
       -0.055117913 -0.051633514 -0.0076294914 0.001359495
0002e0 a7 b4 cf 3d fb ed f4 b9 79 18 01 bb 3c 0f 93 bd
       0.101418786 -0.00046716616 -0.0019698425 -0.0718064
0002f0 f7 88 64 bd bd b2 ca 3d 90 07 76 3d 1a af ba 3a
       -0.055794682 0.09897373 0.060065806 0.0014242858
000300 b9 23 ae ba 22 8a d9 bd 6c 1b 9b 3a 2f 90 10 39
       -0.0013285793 -0.1062205 0.0011833734 0.00013786623
000310 51 f8 9b 3d 99 21 0e 3a 98 f9 8e 3a ed 93 8c 3d
       0.07615722 0.00054218766 0.0010908125 0.06864152
000320 80 30 8f 3b 85 66 f9 bd 55 a6 85 bd 60 5c 57 3d
       0.0043697953 -0.12177757 -0.06525866 0.05257833
000330 40 08 77 3d 33 2e e5 39 39 ce 59 39 1d 65 12 be
       0.060310602 0.00043712705 0.00020771557 -0.14296384
000340 7c e8 c2 bc 5b 54 49 bc b9 8d 9a 3d ac f5 f8 ba
       -0.023792498 -0.012288178 0.07546563 -0.0018994114
000350 75 b3 ae bc 18 9f a1 3d 42 80 80 3d fe 30 8b 3d
       -0.021325806 0.07891673 0.06274463 0.06796454
000360 15 59 63 ba fb 78 66 3d 2d 4b 7e 3d c6 5c 6f bb
       -0.0008672637 0.05626772 0.062083412 -0.0036523803
000370 2b b3 6b 3a 88 4d a9 bd 12 ca 37 b9 96 97 2b bd
       0.00089912367 -0.08266741 -0.00017527517 -0.04189261
000380 c2 d7 2f bd d7 50 12 3b 4a dd 64 3a 45 4c 78 3d
       -0.042930372 0.0022326016 0.00087304844 0.06061961
000390 14 5a 4c 3d 3a b0 71 3d 34 4d bb 3c 10 62 c2 bd
       0.049890593 0.059005953 0.022863962 -0.0949136
0003a0 98 f1 9d bd 2a e5 8b ba fc 0d 6b 3d fb 2d a6 bd
       -0.07712096 -0.0010673155 0.057386383 -0.08114239
0003b0 26 46 ed ba 1c 8a 51 ba 4e 05 8f 3d 74 ec a0 3a
       -0.0018102571 -0.0007993297 0.06983434 0.00122775
0003c0 0d 16 9d bd 91 67 cf ba 17 da 22 bb a0 5a 57 3d
       -0.076702215 -0.0015823712 -0.002484923 0.05257666
0003d0 68 4c 90 3d 12 5e d0 bd 3d f3 19 39 94 09 46 3a
       0.07045823 -0.101741925 0.0001468183 0.0007554528
0003e0 75 70 a9 bd 68 39 19 bc e0 4c 0a 3a d9 0a d3 bd
       -0.082734026 -0.009352066 0.00052757375 -0.103048034
0003f0 53 54 85 bd 17 31 a6 3a cf 93 59 bd df e2 4c 3d
       -0.06510224 0.0012679425 -0.053119477 0.05002105

positivity_head.0.bias f4 [2]
000000 f1 76 74 3d 14 77 74 bd
       0.059683744 -0.059683874

exp_avg f4 [190, 114]
000000 5c 96 dc b8 f1 4e bc 39 ff 3e 9e 3b 39 8f ed 38
       -0.00010518424 0.0003591697 0.004829287 0.00011327718
000010 23 ab 9b 38 d3 9a 88 35 d9 dc 58 36 4b cf 81 38
       7.422853e-05 1.0177849e-06 3.2315058e-06 6.189811e-05
000020 ba 77 b2 34 b2 3b aa 39 bd e7 49 39 42 9a 1d 39
       3.3242196e-07 0.00032469403 0.00019255183 0.00015030152
000030 28 66 9d 39 33 e1 8d 39 5d 5e c4 39 6b 9f 89 39
       0.00030021486 0.00027061402 0.0003745434 0.00026249452
000040 4a 16 ee 39 13 5a e0 39 10 69 21 39 52 08 95 39
       0.00045411504 0.0004279172 0.00015393295 0.00028425694
000050 28 b1 ad 39 b2 38 a1 39 81 28 83 39 dd 10 30 39
       0.00033129123 0.00030750554 0.00025016445 0.0001679095
000060 46 5a b7 39 01 ba ae 39 48 99 cf 39 80 a7 92 39
       0.0003497174 0.0003332645 0.0003959632 0.00027972087
000070 78 28 9d 39 99 17 9b 39 81 1c a1 39 bd 54 a5 39
       0.00029975525 0.00029581485 0.0003072955 0.00031534387
000080 dd 0a 8d 39 5c 83 be 39 30 de 88 39 89 f3 e9 39
       0.0002690171 0.00036337494 0.00026105484 0.0004462267
000090 7c 3b b6 39 0c b6 b0 39 ad 9a 91 39 0a e8 a8 39
       0.00034758064 0.0003370497 0.00027771798 0.0003221634
0000a0 57 dc b1 39 a4 db b7 39 c5 6f ca 39 22 65 d3 38
       0.00033924237 0.00035068125 0.00038611717 0.000100801015
0000b0 7e 40 43 39 43 a0 5f 39 11 09 3e 39 b0 a8 42 39
       0.00018620674 0.0002132664 0.0001812319 0.00018564123
0000c0 a4 af fc 38 3c 14 27 39 55 29 ac 39 f2 b5 9b 39
       0.00012049012 0.00015933899 0.0003283719 0.00029699464
0000d0 48 a6 67 39 41 e5 b7 39 31 08 b1 39 7a 62 a6 39
       0.00022091821 0.00035075287 0.00033766174 0.00031735358
0000e0 fc 6e a0 39 4c 80 a6 39 1b 16 8f 39 64 fc c2 39
       0.00030600268 0.00031757576 0.00027291555 0.0003719061
0000f0 aa 37 9b 39 81 ea 99 39 b3 41 95 39 84 1a 91 39
       0.00029605377 0.00029357153 0.00028468444 0.0002767631
000100 67 27 6a 39 63 78 aa 39 37 6e 8d 39 7f f1 67 39
       0.00022330658 0.00032514622 0.00026975732 0.00022119841
000110 e1 d5 8d 39 e0 58 93 39 aa 9f 8b 39 8d 15 9d 39
       0.00027052968 0.00028104242 0.00026631105 0.0002996143
000120 dc 8d 8e 39 24 fc 97 39 a7 f1 93 39 4c 94 6d 39
       0.00027190044 0.00028988824 0.0002821807 0.00022657326
000130 7e 55 67 39 91 aa a1 39 12 03 94 39 9a 2c a2 39
       0.00022061725 0.00030835395 0.00028231047 0.0003093228
000140 5f fe 85 39 80 d7 a5 39 6f aa 9c 39 5f fa 9b 39
       0.00025557258 0.00031631812 0.00029881622 0.00029750445
000150 c0 a6 6b 39 b9 1f a5 39 e0 ce b1 39 a3 9e 9c 39
       0.00022473466 0.00031494888 0.00033914205 0.00029872832
000160 ec 42 82 39 41 11 96 39 eb bc 9e 39 03 71 92 39
       0.00024845393 0.00028623085 0.00030276863 0.0002793149
000170 40 34 9c 39 1a 85 92 39 47 2c 99 39 e2 6e 68 39
       0.00029793568 0.00027946458 0.00029215423 0.00022166551
000180 17 47 86 39 9f e6 b3 39 60 80 70 39 08 3f 8d 39
       0.00025611438 0.00034313367 0.00022936007 0.00026940578
000190 f0 8e 78 39 f5 19 9c 39 4e cf 68 39 c0 05 a2 39
       0.00023704371 0.00029773978 0.00022202471 0.00030903332
0001a0 37 46 82 39 6d 48 9d 39 2e 7e a6 39 ba 70 80 39
       0.00024847846 0.00029999335 0.00031755998 0.0002449805
0001b0 ba 68 81 39 95 89 8d 39 86 fb 73 39 d7 49 68 39
       0.00024682825 0.00026996122 0.00023267986 0.00022152752
0001c0 0a ce 4f 39 b3 87 8a 39 04 00 00 00 04 00 00 00
       0.00019817814 0.00026422515 6e-45 6e-45
0001d0 04 00 00 00 04 00 00 00 04 00 00 00 04 00 00 00
       6e-45 6e-45 6e-45 6e-45
0001e0 00 00 00 00 04 00 00 00 00 00 00 00 04 00 00 00
       0.0 6e-45 0.0 6e-45
0001f0 04 00 00 00 04 00 00 00 04 00 00 00 04 00 00 00
       6e-45 6e-45 6e-45 6e-45
000200 04 00 00 00 04 00 00 00 04 00 00 00 04 00 00 00
       6e-45 6e-45 6e-45 6e-45
000210 04 00 00 00 04 00 00 00 04 00 00 00 04 00 00 00
       6e-45 6e-45 6e-45 6e-45
000220 04 00 00 00 04 00 00 00 04 00 00 00 04 00 00 00
       6e-45 6e-45 6e-45 6e-45
000230 04 00 00 00 04 00 00 00 04 00 00 00 04 00 00 00
       6e-45 6e-45 6e-45 6e-45
000240 04 00 00 00 04 00 00 00 04 00 00 00 04 00 00 00
       6e-45 6e-45 6e-45 6e-45
000250 04 00 00 00 04 00 00 00 04 00 00 00 04 00 00 00
       6e-45 6e-45 6e-45 6e-45
000260 04 00 00 00 04 00 00 00 04 00 00 00 04 00 00 00
       6e-45 6e-45 6e-45 6e-45
000270 04 00 00 00 04 00 00 00 04 00 00 00 04 00 00 00
       6e-45 6e-45 6e-45 6e-45
000280 04 00 00 00 04 00 00 00 04 00 00 00 04 00 00 00
       6e-45 6e-45 6e-45 6e-45
000290 04 00 00 00 04 00 00 00 04 00 00 00 04 00 00 00
       6e-45 6e-45 6e-45 6e-45
0002a0 04 00 00 00 04 00 00 00 04 00 00 00 04 00 00 00
       6e-45 6e-45 6e-45 6e-45
0002b0 04 00 00 00 04 00 00 00 04 00 00 00 04 00 00 00
       6e-45 6e-45 6e-45 6e-45
0002c0 04 00 00 00 04 00 00 00 04 00 00 00 04 00 00 00
       6e-45 6e-45 6e-45 6e-45
0002d0 04 00 00 00 04 00 00 00 04 00 00 00 04 00 00 00
       6e-45 6e-45 6e-45 6e-45
0002e0 04 00 00 00 04 00 00 00 04 00 00 00 04 00 00 00
       6e-45 6e-45 6e-45 6e-45
0002f0 04 00 00 00 04 00 00 00 04 00 00 00 04 00 00 00
       6e-45 6e-45 6e-45 6e-45
000300 04 00 00 00 04 00 00 00 04 00 00 00 04 00 00 00
       6e-45 6e-45 6e-45 6e-45
000310 04 00 00 00 04 00 00 00 04 00 00 00 04 00 00 00
       6e-45 6e-45 6e-45 6e-45
000320 04 00 00 00 04 00 00 00 04 00 00 00 04 00 00 00
       6e-45 6e-45 6e-45 6e-45
000330 04 00 00 00 04 00 00 00 04 00 00 00 04 00 00 00
       6e-45 6e-45 6e-45 6e-45
000340 04 00 00 00 04 00 00 00 04 00 00 00 04 00 00 00
       6e-45 6e-45 6e-45 6e-45
000350 04 00 00 00 04 00 00 00 04 00 00 00 04 00 00 00
       6e-45 6e-45 6e-45 6e-45
000360 04 00 00 00 04 00 00 00 04 00 00 00 04 00 00 00
       6e-45 6e-45 6e-45 6e-45
000370 04 00 00 00 04 00 00 00 04 00 00 00 04 00 00 00
       6e-45 6e-45 6e-45 6e-45
000380 04 00 00 00 04 00 00 00 04 00 00 00 04 00 00 00
       6e-45 6e-45 6e-45 6e-45
000390 04 00 00 00 00 00 00 00 04 00 00 00 04 00 00 00
       6e-45 0.0 6e-45 6e-45
0003a0 00 00 00 00 00 00 00 00 00 00 00 00 00 00 00 00
       0.0 0.0 0.0 0.0
0003b0 00 00 00 00 04 00 00 00 04 00 00 00 04 00 00 00
       0.0 6e-45 6e-45 6e-45
0003c0 04 00 00 00 04 00 00 00 04 00 00 00 04 00 00 00
       6e-45 6e-45 6e-45 6e-45
0003d0 04 00 00 00 04 00 00 00 04 00 00 00 04 00 00 00
       6e-45 6e-45 6e-45 6e-45
0003e0 04 00 00 00 04 00 00 00 04 00 00 00 04 00 00 00
       6e-45 6e-45 6e-45 6e-45
0003f0 04 00 00 00 04 00 00 00 04 00 00 00 04 00 00 00
       6e-45 6e-45 6e-45 6e-45

exp_avg_sq f4 [190, 114]
000000 56 01 08 36 9c 16 9a 36 6f 6b f1 39 48 ae 0f 36
       2.0266357e-06 4.5921897e-06 0.00046047146 2.1410106e-06
000010 1d 4f 80 35 e1 72 c7 33 be 3e 75 32 b5 aa ba 34
       9.559768e-07 9.287556e-08 1.4275143e-08 3.4769405e-07
000020 b4 58 c0 2b ab a5 ac 36 67 1d 51 36 4d 34 93 36
       1.3667041e-12 5.1452857e-06 3.1160541e-06 4.38703e-06
000030 ae b7 94 36 83 ff 6c 36 a7 b9 c6 36 23 60 be 36
       4.432127e-06 3.5315468e-06 5.9224726e-06 5.673633e-06
000040 db 39 15 37 64 55 36 37 a5 ec 3c 36 99 c7 68 36
       8.894563e-06 1.0867927e-05 2.8151928e-06 3.4686875e-06
000050 1a 37 69 36 36 de b0 36 f3 5e b6 36 23 c7 7d 36
       3.475178e-06 5.2710775e-06 5.435076e-06 3.781585e-06
000060 d0 de d0 36 d7 9f ce 36 e3 1d f6 36 64 f7 1a 37
       6.224822e-06 6.157886e-06 7.3348506e-06 9.236715e-06
000070 d4 b5 ac 36 63 a8 89 36 e5 ad 93 36 bf 80 96 36
       5.147167e-06 4.102521e-06 4.4011854e-06 4.4853364e-06
000080 e6 b7 6c 36 20 86 c6 36 c9 c6 c2 36 c6 64 1a 37
       3.5273783e-06 5.916474e-06 5.804792e-06 9.202578e-06
000090 62 dc 34 37 10 5c ac 36 43 8a ac 36 b6 b8 c9 36
       1.0780148e-05 5.136717e-06 5.1420952e-06 6.01177e-06
0000a0 40 87 d3 36 5c c4 f5 36 fe 80 15 37 0a 77 27 36
       6.304035e-06 7.324428e-06 8.911125e-06 2.495423e-06
0000b0 e2 39 fc 35 69 e3 5c 36 da 6c 16 36 5d 05 27 36
       1.8792309e-06 3.2914925e-06 2.2415102e-06 2.488806e-06
0000c0 f1 69 26 36 67 ae 3e 36 ba 88 9f 36 39 6b 89 36
       2.4797594e-06 2.8413722e-06 4.7544863e-06 4.0954005e-06
0000d0 20 5a 81 36 c5 ab 8b 36 20 a0 8f 36 d8 a9 ac 36
       3.8549915e-06 4.1625194e-06 4.280373e-06 5.145772e-06
0000e0 9e 4a 93 36 87 f8 a7 36 14 fc 94 36 74 7f 82 36
       4.389628e-06 5.0059202e-06 4.4400895e-06 3.8891394e-06
0000f0 53 fd 96 36 53 3b 8e 36 a6 71 89 36 d4 94 a3 36
       4.499839e-06 4.238836e-06 4.0961486e-06 4.8751044e-06
000100 17 37 8e 36 ba 77 84 36 fd b1 89 36 f9 8c 90 36
       4.238343e-06 3.9478446e-06 4.1036387e-06 4.307946e-06
000110 d0 5a 8d 36 b7 89 97 36 64 70 67 36 7d 86 94 36
       4.2126994e-06 4.516183e-06 3.4487102e-06 4.4264e-06
000120 22 22 71 36 fc 88 96 36 4a b6 8d 36 04 26 86 36
       3.5931666e-06 4.4862954e-06 4.2233487e-06 3.997937e-06
000130 44 41 74 36 2a 64 7c 36 16 78 92 36 a6 ea 8a 36
       3.6396823e-06 3.760923e-06 4.365119e-06 4.140037e-06
000140 ca a1 77 36 5b d7 90 36 1e 9b 8f 36 62 4e 86 36
       3.6900042e-06 4.316605e-06 4.27979e-06 4.002636e-06
000150 ce 57 87 36 f5 9f 86 36 da 55 86 36 84 b1 9f 36
       4.0335353e-06 4.0121326e-06 4.0035056e-06 4.759235e-06
000160 de c6 93 36 a4 74 96 36 d3 48 99 36 d7 0f 7d 36
       4.4040926e-06 4.483927e-06 4.568233e-06 3.7709158e-06
000170 10 0c 9c 36 e4 7a 8a 36 3b 55 86 36 32 f0 9f 36
       4.6505666e-06 4.127027e-06 4.0034333e-06 4.7665317e-06
000180 14 84 8c 36 3d 9e 85 36 c7 77 8f 36 4c c1 95 36
       4.187701e-06 3.9821302e-06 4.275676e-06 4.4630488e-06
000190 9d 68 92 36 5e 65 99 36 6c c0 67 36 87 ac 97 36
       4.3633177e-06 4.571556e-06 3.4533687e-06 4.5202355e-06
0001a0 82 fb 71 36 6d b0 93 36 3d 49 8c 36 9a d8 90 36
       3.6058195e-06 4.40148e-06 4.180851e-06 4.31675e-06
0001b0 4e 43 81 36 6f 64 7f 36 94 98 8e 36 ec ed 87 36
       3.852335e-06 3.805642e-06 4.249692e-06 4.0510113e-06
0001c0 db 85 6e 36 ae 09 92 36 f4 01 00 00 f4 01 00 00
       3.5542678e-06 4.352266e-06 7e-43 7e-43
0001d0 f4 01 00 00 f4 01 00 00 f4 01 00 00 f4 01 00 00
       7e-43 7e-43 7e-43 7e-43
0001e0 00 00 00 00 f4 01 00 00 00 00 00 00 f4 01 00 00
       0.0 7e-43 0.0 7e-43
0001f0 f4 01 00 00 f4 01 00 00 f4 01 00 00 f4 01 00 00
       7e-43 7e-43 7e-43 7e-43
000200 f4 01 00 00 f4 01 00 00 f4 01 00 00 f4 01 00 00
       7e-43 7e-43 7e-43 7e-43
000210 f4 01 00 00 f4 01 00 00 f4 01 00 00 f4 01 00 00
       7e-43 7e-43 7e-43 7e-43
000220 f4 01 00 00 f4 01 00 00 f4 01 00 00 f4 01 00 00
       7e-43 7e-43 7e-43 7e-43
000230 f4 01 00 00 f4 01 00 00 f4 01 00 00 f4 01 00 00
       7e-43 7e-43 7e-43 7e-43
000240 f4 01 00 00 f4 01 00 00 f4 01 00 00 f4 01 00 00
       7e-43 7e-43 7e-43 7e-43
000250 f4 01 00 00 f4 01 00 00 f4 01 00 00 f4 01 00 00
       7e-43 7e-43 7e-43 7e-43
000260 f4 01 00 00 f4 01 00 00 f4 01 00 00 f4 01 00 00
       7e-43 7e-43 7e-43 7e-43
000270 f4 01 00 00 f4 01 00 00 f4 01 00 00 f4 01 00 00
       7e-43 7e-43 7e-43 7e-43
000280 f4 01 00 00 f4 01 00 00 f4 01 00 00 f4 01 00 00
       7e-43 7e-43 7e-43 7e-43
000290 f4 01 00 00 f4 01 00 00 f4 01 00 00 f4 01 00 00
       7e-43 7e-43 7e-43 7e-43
0002a0 f4 01 00 00 f4 01 00 00 f4 01 00 00 f4 01 00 00
       7e-43 7e-43 7e-43 7e-43
0002b0 f4 01 00 00 f4 01 00 00 f4 01 00 00 f4 01 00 00
       7e-43 7e-43 7e-43 7e-43
0002c0 f4 01 00 00 f4 01 00 00 f4 01 00 00 f4 01 00 00
       7e-43 7e-43 7e-43 7e-43
0002d0 f4 01 00 00 f4 01 00 00 f4 01 00 00 f4 01 00 00
       7e-43 7e-43 7e-43 7e-43
0002e0 f4 01 00 00 f4 01 00 00 f4 01 00 00 f4 01 00 00
       7e-43 7e-43 7e-43 7e-43
0002f0 f4 01 00 00 f4 01 00 00 f4 01 00 00 f4 01 00 00
       7e-43 7e-43 7e-43 7e-43
000300 f4 01 00 00 f4 01 00 00 f4 01 00 00 f4 01 00 00
       7e-43 7e-43 7e-43 7e-43
000310 f4 01 00 00 f4 01 00 00 f4 01 00 00 f4 01 00 00
       7e-43 7e-43 7e-43 7e-43
000320 f4 01 00 00 f4 01 00 00 f4 01 00 00 f4 01 00 00
       7e-43 7e-43 7e-43 7e-43
000330 f4 01 00 00 f4 01 00 00 f4 01 00 00 f4 01 00 00
       7e-43 7e-43 7e-43 7e-43
000340 f4 01 00 00 f4 01 00 00 f4 01 00 00 f4 01 00 00
       7e-43 7e-43 7e-43 7e-43
000350 f4 01 00 00 f4 01 00 00 f4 01 00 00 f4 01 00 00
       7e-43 7e-43 7e-43 7e-43
000360 f4 01 00 00 f4 01 00 00 f4 01 00 00 f4 01 00 00
       7e-43 7e-43 7e-43 7e-43
000370 f4 01 00 00 f4 01 00 00 f4 01 00 00 f4 01 00 00
       7e-43 7e-43 7e-43 7e-43
000380 f4 01 00 00 f4 01 00 00 f4 01 00 00 f4 01 00 00
       7e-43 7e-43 7e-43 7e-43
000390 f4 01 00 00 00 00 00 00 f4 01 00 00 f4 01 00 00
       7e-43 0.0 7e-43 7e-43
0003a0 00 00 00 00 00 00 00 00 00 00 00 00 00 00 00 00
       0.0 0.0 0.0 0.0
0003b0 00 00 00 00 f4 01 00 00 f4 01 00 00 f4 01 00 00
       0.0 7e-43 7e-43 7e-43
0003c0 f4 01 00 00 f4 01 00 00 f4 01 00 00 f4 01 00 00
       7e-43 7e-43 7e-43 7e-43
0003d0 f4 01 00 00 f4 01 00 00 f4 01 00 00 f4 01 00 00
       7e-43 7e-43 7e-43 7e-43
0003e0 f4 01 00 00 f4 01 00 00 f4 01 00 00 f4 01 00 00
       7e-43 7e-43 7e-43 7e-43
0003f0 f4 01 00 00 f4 01 00 00 f4 01 00 00 f4 01 00 00
       7e-43 7e-43 7e-43 7e-43

exp_avg f4 [190]
000000 5b 29 85 39 04 00 00 00 04 00 00 00 de be bb b9
       0.0002539855 6e-45 6e-45 -0.00035809627
000010 00 00 00 00 04 00 00 00 87 61 0c 3a 00 00 00 00
       0.0 6e-45 0.0005355109 0.0
000020 04 00 00 00 73 d6 96 39 30 81 bb 39 6a b8 24 ba
       6e-45 0.00028770007 0.00035763672 -0.00062835834
000030 db 91 0f b9 60 b3 9c 39 a1 22 ce 39 00 00 00 00
       -0.00013691878 0.00029888283 0.00039317182 0.0
000040 04 00 00 00 07 bc 7f ba 9e 54 b2 38 f0 57 8d 39
       6e-45 -0.0009755496 8.5034626e-05 0.00026959134
000050 48 8d 9f 39 00 00 00 00 d3 d8 28 39 4e 3b a4 39
       0.00030432106 0.0 0.00016102502 0.00031324703
000060 29 6f 91 39 d7 72 94 39 04 00 00 00 1f b7 86 39
       0.00027739376 0.00028314322 6e-45 0.00025694908
000070 5e 9e 8d 39 04 00 00 00 00 00 00 00 fa 19 58 b9
       0.00027011608 6e-45 0.0 -0.00020609042
000080 04 00 00 00 6a a4 cd b4 d7 a4 f7 38 04 00 00 00
       6e-45 -3.8303853e-07 0.000118085816 6e-45
000090 00 00 00 00 58 3a 8c 39 e9 b9 92 39 cf fe 85 39
       0.0 0.0002674635 0.00027985804 0.00025557584
0000a0 0f 28 02 3a e9 b5 a1 b9 3b 5d 33 b9 04 00 00 00
       0.00049650756 -0.00030843847 -0.00017105501 6e-45
0000b0 d6 1c 90 39 7b 25 51 b9 04 00 00 00 04 00 00 00
       0.00027487305 -0.00019945756 6e-45 6e-45
0000c0 c9 3b 18 3a 04 00 00 00 8b 0f 35 b9 04 00 00 00
       0.00058072485 6e-45 -0.00017267295 6e-45
0000d0 04 00 00 00 9d e8 99 39 f3 87 a6 39 7f 27 b2 b9
       6e-45 0.00029355744 0.00031763277 -0.00033980233
0000e0 04 00 00 00 00 00 00 00 8c 23 5b b9 98 90 7b 39
       6e-45 0.0 -0.0002089871 0.0002399109
0000f0 00 00 00 00 57 ff b8 b9 8d 7b 6a b8 00 00 00 00
       0.0 -0.00035285458 -5.5905013e-05 0.0
000100 1c 88 9a b7 ea 99 98 39 d2 c2 88 39 ac ac bc b8
       -1.8421611e-05 0.00029106374 0.00026085094 -8.996701e-05
000110 bb 93 9c 39 01 9a 42 b9 3e ca 95 39 0f fb 94 39
       0.00029864706 -0.00018558653 0.00028570177 0.00028415813
000120 40 5b 82 39 04 00 00 00 e5 8f 8d 39 e5 6f 93 39
       0.0002486352 6e-45 0.00027000826 0.00028121393
000130 04 00 00 00 00 00 00 00 56 35 cd 39 1f 8f 34 b9
       6e-45 0.0 0.00039140385 -0.00017219454
000140 3e b9 a2 39 08 02 93 b9 46 88 f4 39 67 80 96 39
       0.00031037064 -0.00028039538 0.00046640838 0.00028705897
000150 3a 13 9c 37 9e 05 87 39 04 00 00 00 04 00 00 00
       1.8605602e-05 0.00025753392 6e-45 6e-45
000160 04 00 00 00 89 9d 0d 39 a4 e9 9a b9 04 00 00 00
       6e-45 0.00013505494 -0.00029547245 6e-45
000170 00 00 00 00 f1 81 20 b9 39 16 b5 b9 04 00 00 00
       0.0 -0.00015307196 -0.00034539567 6e-45
000180 01 dc 52 b9 42 d0 bd b9 d4 28 8f 39 00 00 00 00
       -0.00020109118 -0.00036204053 0.00027305505 0.0
000190 04 00 00 00 00 00 00 00 00 00 00 00 04 00 00 00
       6e-45 0.0 0.0 6e-45
0001a0 04 00 00 00 b8 01 28 3a 04 00 00 00 17 45 8d 38
       6e-45 0.00064089475 6e-45 6.736273e-05
0001b0 04 00 00 00 04 00 00 00 d6 5a a5 b8 00 c2 94 39
       6e-45 6e-45 -7.8847326e-05 0.000283733
0001c0 6f f8 9a 39 72 b9 89 b9 df 14 80 b9 04 00 00 00
       0.00029558266 -0.00026268844 -0.00024429613 6e-45
0001d0 13 d7 30 b9 6e 17 9f 39 9c 57 8f 39 a3 15 a4 39
       -0.0001686479 0.000303443 0.0002734036 0.00031296638
0001e0 04 00 00 00 fe ea 9b 39 13 b1 90 39 04 00 00 00
       6e-45 0.00029738987 0.0002759775 6e-45
0001f0 04 00 00 00 64 91 86 b9 04 00 00 00 ef 59 d1 b9
       6e-45 -0.00025666796 6e-45 -0.00039930592
000200 04 00 00 00 78 b6 98 39 04 00 00 00 04 00 00 00
       6e-45 0.0002912765 6e-45 6e-45
000210 3d 6a b6 b9 04 00 00 00 36 74 eb b9 00 00 00 00
       -0.000347929 6e-45 -0.00044909277 0.0
000220 00 00 00 00 e6 66 bd 39 d2 a4 83 39 04 00 00 00
       0.0 0.00036125554 0.00025109068 6e-45
000230 4f 74 67 b9 e9 03 fe b9 04 00 00 00 04 00 00 00
       -0.00022073205 -0.0004844957 6e-45 6e-45
000240 d6 a1 78 39 8d 60 90 39 f9 78 86 39 57 b7 8c 39
       0.00023711412 0.00027537756 0.00025648603 0.0002683948
000250 4d c8 8d 39 bc e6 dd 39 04 00 00 00 43 f8 07 3a
       0.0002704285 0.00042324315 6e-45 0.0005186835
000260 d5 df 95 39 b2 43 96 39 2b 8a 45 ba 04 00 00 00
       0.00028586262 0.00028660666 -0.0007535542 6e-45
000270 b5 f2 9b 39 00 00 00 00 00 00 00 00 8a 80 89 39
       0.00029744735 0.0 0.0 0.00026226445
000280 ae 8a 8b 39 3e 66 8c b9 d3 52 aa 39 04 00 00 00
       0.0002661547 -0.00026779057 0.00032486636 6e-45
000290 00 00 00 00 04 00 00 00 43 6e 8c b9 57 ca 0c ba
       0.0 6e-45 -0.00026785032 -0.0005370727
0002a0 04 00 00 00 77 a9 76 37 04 00 00 00 04 00 00 00
       6e-45 1.4702199e-05 6e-45 6e-45
0002b0 a5 71 88 39 9d 76 8f 39 04 00 00 00 21 d7 a3 b9
       0.00026024613 0.0002736346 6e-45 -0.00031250066
0002c0 04 00 00 00 04 00 00 00 32 49 8c 39 55 06 9a 39
       6e-45 6e-45 0.00026757416 0.00029377887
0002d0 83 3b 8b 39 16 16 9a 39 66 60 ab 39 04 00 00 00
       0.00026556486 0.00029389624 0.00032687484 6e-45
0002e0 2b 35 b3 b9 00 00 00 00 00 00 00 00 6b ef 04 3a
       -0.00034181154 0.0 0.0 0.00050710764
0002f0 d8 9e 87 39 3e 1e a7 b9
       0.00025867554 -0.00031875254
