docker/files/gmvolume.ckpt (torch, 818662 bytes, 18 tensors)

encoder.0.weight f4 [217, 209]
0	0xbaecf2cc	-0.001807773
1	0xb9207326	-0.00015301685
2	0xb931121e	-0.00016886785
3	0xb974aa3d	-0.00023333072
4	0xbac787c9	-0.0015222962
5	0xb91aebb3	-0.0001477439
6	0xba248cfc	-0.0006277112
7	0xbacbdebe	-0.0015554053
8	0xbaaec7d0	-0.0013334695
9	0x3ae183e1	0.0017205441
10	0x3a723d29	0.0009240681
11	0x3b04ff90	0.0020293929
12	0x3ad6efe1	0.0016398394
13	0xba995a70	-0.0011699926
14	0x3a8d249c	0.0010768357
15	0xb9c0668a	-0.0003669749
16	0x399ed7eb	0.0003029698
17	0xba74955e	-0.0009330119
18	0xba4bbfcf	-0.0007772417
19	0x39d3d6a9	0.0004040499
20	0xb93ccce1	-0.000180054
21	0xba806f0f	-0.0009798723
22	0xbae3935b	-0.0017362641
23	0xba16ffd5	-0.0005760168
24	0xba2ffeb6	-0.0006713675
25	0x3aa55a00	0.0012615323
26	0x3a7f9146	0.00097491255
27	0x3b010b5b	0.0019690606
28	0xbafa4238	-0.0019093221
29	0x3a07ac59	0.0005175523
30	0xba692d90	-0.0008895034
31	0x3a06f8df	0.0005148779
32	0xba3c1726	-0.000717508
33	0x3a125766	0.00055824814
34	0x3a008aa1	0.000490347
35	0x3a1b202b	0.0005917574
36	0x3ac624a4	0.0015117121
37	0xbab81d5e	-0.0014046838
38	0x3a8286e8	0.0009958418
39	0xba9e535e	-0.0012079289
40	0xba0cbdea	-0.00053688756
41	0xba80d0c5	-0.0009827843
42	0xbaf15ab3	-0.0018413871
43	0xbab678a1	-0.0013921448
44	0x3a51137b	0.000797562
45	0xbb13b46c	-0.002253796
46	0x3a413489	0.0007370194
47	0xbad68046	-0.0016365133
48	0xb7a9ec02	-2.025627e-05
49	0x3b460ae2	0.003021889
50	0x3adb17b3	0.0016715437
51	0xb850e79e	-4.9806775e-05
52	0xb8aa46be	-8.1194084e-05
53	0xba5dae02	-0.000845641
54	0x37c8ff7b	2.3960825e-05
55	0x39e5729c	0.00043763674
56	0x3a441b93	0.00074809155
57	0xb95b1f78	-0.0002089719
58	0x3b8e8ced	0.0043502958
59	0x3a96e557	0.001151244
60	0xbaf2d5dd	-0.0018526871
61	0xb97ad254	-0.00023920211
62	0x3ac0120b	0.0014653815
63	0xba1c1c52	-0.0005955148
64	0xb9ab3a5d	-0.00032659146
65	0xba223d7e	-0.00061889726
66	0xba93464a	-0.0011236158
67	0x37bd4624	2.2563217e-05
68	0xb8c590e6	-9.4206815e-05
69	0x393629fc	0.00017372513
70	0xb910be80	-0.00013803877
71	0xba3be66e	-0.00071678206
72	0x3a238307	0.0006237481
73	0x3a9f9a19	0.0012176662
74	0x3aa4bf0d	0.0012569145
75	0xba4c8427	-0.00078016747
76	0xbad65abc	-0.0016353945
77	0x39ac9ee5	0.00032924782
78	0x3afef18a	0.0019450646
79	0x3a835f34	0.001002288
80	0xbb0aa162	-0.002115332
81	0x3a038259	0.0005016677
82	0xba4a32f2	-0.000771328
83	0xbaec3455	-0.0018020967
84	0xb9a17c2e	-0.00030800834
85	0xb983b9c4	-0.00025124673
86	0x3b685950	0.0035453625
87	0xbb463397	-0.0030243152
88	0xba71b0af	-0.00092197483
89	0x3aa3bb70	0.0012491774
90	0xb99ca782	-0.00029879442
91	0x399dfaf1	0.0003013234
92	0xbaca3cc4	-0.0015429487
93	0xbb01006c	-0.001968409
94	0xbb1cfc29	-0.002395401
95	0x39d0133b	0.0003968718
96	0x395534e9	0.00020332974
97	0x3b436ca7	0.00298194
98	0xba8f8746	-0.0010950349
99	0xb9894885	-0.00026184708
100	0xba89e869	-0.0010521534
101	0x3a9bf04a	0.0011897173
102	0xba48113b	-0.0007631962
103	0x380d44c7	3.3681074e-05
104	0xbadb1d92	-0.0016717187
105	0x3b132041	0.0022449645
106	0xbac30c2a	-0.0014880945
107	0xb79c1db8	-1.8610488e-05
108	0xb93124c1	-0.00016893727
109	0x3a8f0461	0.0010911339
110	0x3aa03ba3	0.0012224804
111	0xb8c4cf9c	-9.3846786e-05
112	0x3aa9dbb8	0.0012959158
113	0xb9aa6737	-0.00032501828
114	0x3ac75437	0.0015207593
115	0x3a152876	0.0005689928
116	0x390c0abe	0.00013355442
117	0xb98cb817	-0.00026840038
118	0x3b6bd0e2	0.0035982658
119	0xb965be5e	-0.00021910059
120	0xbb29248f	-0.0025809144
121	0x3b03e2b7	0.0020124146
122	0x380724e2	3.2220858e-05
123	0x3b09ef68	0.0021047238
124	0xbaedd961	-0.0018146449
125	0xba3ee15b	-0.00072815054
126	0x39b226e7	0.0003397979
127	0x39bda666	0.00036172866
128	0xb9b84ff7	-0.00035154793
129	0xba55fb5d	-0.0008162761
130	0x3a35d564	0.00069364
131	0x3acf512e	0.001581704
132	0x3ad0a213	0.0015917443
133	0x3ae477d9	0.0017430737
134	0xba1d5b92	-0.000600272
135	0x3b41f0a7	0.0029592903
136	0x3a341f21	0.00068710936
137	0x3a3ad481	0.00071270025
138	0xba486f2d	-0.0007645961
139	0x393f8800	0.00018265843
140	0x3ad432fd	0.0016189512
141	0xb9ce15db	-0.00039307665
142	0x39d387bd	0.0004034619
143	0x39d4a901	0.0004056171
144	0xb9df1b45	-0.00042554192
145	0x3a3a9959	0.00071181875
146	0xbac0d233	-0.0014711082
147	0xbac4952a	-0.0014998068
148	0x397b5f82	0.00023972805
149	0xba78ad3c	-0.0009486263
150	0xb8e86533	-0.00011081472
151	0xb8a6b7e7	-7.949751e-05
152	0x38f18a2a	0.000115175106
153	0x39cdc7dc	0.00039249554
154	0x3b00fc39	0.0019681586
155	0x3a281e6f	0.00064132264
156	0x3aa63360	0.0012680106
157	0xbb486346	-0.003057675
158	0x3a216eeb	0.00061581907
159	0x38efbffc	0.00011432168
160	0xbabc442d	-0.001436358
161	0x3a175c29	0.0005773926
162	0xba8bf6ff	-0.0010678469
163	0xbadb4fcc	-0.0016732155
164	0x39a09d89	0.0003063495
165	0xba5329af	-0.00080552226
166	0xbacf5fb9	-0.0015821374
167	0xba7cabb0	-0.00096386205
168	0x3a66435e	0.0008783842
169	0x3ae38622	0.00173587
170	0x3a0d09a9	0.00053801626
171	0xbaefef35	-0.0018305542
172	0xba2df9e5	-0.00066366635
173	0xbae439c4	-0.0017412235
174	0xba387fe0	-0.0007038098
175	0xba998b68	-0.001171452
176	0x3b1e3ab7	0.0024143883
177	0x38b5d5aa	8.6705506e-05
178	0xba977de7	-0.0011557908
179	0xbb4c6b4a	-0.003119188
180	0xba646530	-0.0008712588
181	0xba741ddb	-0.000931231
182	0x33a4b852	7.670373e-08
183	0xbb819de9	-0.003955592
184	0x3a86c163	0.0010281022
185	0x3ab8cd92	0.0014099351
186	0xba359a9d	-0.0006927641
187	0x3aa6d809	0.0012729178
188	0x3990c839	0.00027614998
189	0xba202292	-0.0006108667
190	0x3a0b3ce2	0.00053115014
191	0xba636aee	-0.00086752966
192	0xb9a96414	-0.00032308756
193	0x38bbd2d2	8.956123e-05
194	0xba335afb	-0.0006841865
195	0xba69ef67	-0.00089239184
196	0xbafae30a	-0.0019141149
197	0xb7d26c00	-2.5084242e-05
198	0xbb0dc97f	-0.0021634994
199	0x39baf992	0.0003566263
200	0x3af00509	0.0018312047
201	0x3b8143b8	0.0039448403
202	0x398f650f	0.0002735038
203	0xba43066e	-0.0007439618
204	0xbb5020e0	-0.0031757876
205	0xbae1c66e	-0.0017225274
206	0xba2b0819	-0.0006524339
207	0xb9b4de12	-0.0003449773
208	0xba221b36	-0.00061838643
209	0x3d03a13c	0.032136187
210	0x3c9a8b98	0.018865392
211	0xba180078	-0.00057984097
212	0x3c79964d	0.015233588
213	0xba6a28c8	-0.00089324685
214	0x3d1682cb	0.036745828
215	0x3b769d60	0.0037630424
216	0x3d6fdcf7	0.058560338
217	0x3d9762ef	0.07391917
218	0xbc61d878	-0.01378452
219	0x3c892f07	0.016746057
220	0xbd296eac	-0.04136531
221	0x3b5a316f	0.0033293625
222	0xbd11c210	-0.035585463
223	0x3cb7d9ac	0.022442661
224	0xbbeacd3f	-0.0071655805
225	0xbcc619ac	-0.024182163
226	0x3d140ce0	0.03614509
227	0x3d3a5895	0.045494635
228	0xbd04f44d	-0.032459546
229	0xbc41d52e	-0.011830611
230	0xbcfb071e	-0.030643042
231	0x3cdf8dd3	0.027289307
232	0x3c931a35	0.017956832
233	0xb927bd14	-0.00015996798
234	0x3c48f5e4	0.012265656
235	0x3ba7ccc2	0.0051208446
236	0x3c8c2cc0	0.017111182
237	0xbb524cc9	-0.0032089225
238	0x3bd5544e	0.006510294
239	0x3cc9fd5a	0.02465694
240	0xbc9cc963	-0.019138997
241	0x3ac6b102	0.0015158954
242	0x3ccc326c	0.024926387
243	0x3c6dc85b	0.0145131005
244	0xbc0893c0	-0.008336008
245	0xbc371c72	-0.0111762155
246	0x3cc61af2	0.02418277
247	0xbcfdee1e	-0.030997332
248	0xbc397450	-0.011319235
249	0x3cce6630	0.025195211
250	0x3c86ea1f	0.01646906
251	0xbcd3e695	-0.025866786
252	0xbc897feb	-0.016784629
253	0x3c047aeb	0.008085947
254	0x3c2d0ab7	0.010561637
255	0x3bb01a4f	0.00537423

encoder.0.bias f4 [217]
0	0x00000000	0.0
1	0x3cde5492	0.027139936
2	0x00000000	0.0
3	0x3c2b6f1b	0.010463501
4	0x3e0b9eb7	0.13634764
5	0x3cda122c	0.026619993
6	0x00000000	0.0
7	0x00000000	0.0
8	0x3d733c30	0.05938357
9	0x3d94b43c	0.072609395
10	0xb92201a8	-0.00015450141
11	0x3cb853bf	0.02250087
12	0x3bd7d273	0.006586367
13	0x3ca2b6da	0.019862581
14	0xb942ebca	-0.0001858912
15	0x00000000	0.0
16	0x3c996565	0.018725106
17	0x3ce88e4a	0.028388161
18	0x00000000	0.0
19	0x3c8829dd	0.016621524
20	0xb8a3c4ce	-7.8091034e-05
21	0x3cf61156	0.030037563
22	0x3c11ba68	0.00889454
23	0x00000000	0.0
24	0x3c992470	0.018694133
25	0x00000000	0.0
26	0x3cd16e6f	0.025565354
27	0x3c18bc71	0.009322272
28	0x00000000	0.0
29	0xb8690388	-5.5554818e-05
30	0xb8c83dfe	-9.54829e-05
31	0x3c5461aa	0.012962738
32	0x3e17cc5c	0.1482405
33	0x3e3501ca	0.17676464
34	0x3cc6fb80	0.024289846
35	0x3cc12d8d	0.02358129
36	0x3c500adb	0.012697901
37	0xb8532dec	-5.034909e-05
38	0x3e146c4d	0.14494438
39	0x3c0fac21	0.008769066
40	0x3e36c8e7	0.17850076
41	0x3cc193eb	0.023630103
42	0x3c6f3bdd	0.014601675
43	0x3db8934d	0.090124704
44	0x3cb2eb8d	0.021840835
45	0x3e06c36a	0.13160482
46	0x3c1a8166	0.009430265
47	0x3d05d1a6	0.03267064
48	0x3e32b983	0.1745358
49	0x3cb5b070	0.022178859
50	0x3e01ed9f	0.12688302
51	0x00000000	0.0
52	0x3db04a80	0.0860796
53	0x3bae3f70	0.005317621
54	0xb8a925ff	-8.065625e-05
55	0xb93596b5	-0.00017317648
56	0x3e0f7bcd	0.1401207
57	0x3dafb4af	0.085793845
58	0xb8449c90	-4.687585e-05
59	0x3cb0df7b	0.021590939
60	0x3c3abd9f	0.011397748
61	0x00000000	0.0
62	0x3e20aa98	0.15690076
63	0x00000000	0.0
64	0x00000000	0.0
65	0x3e0ad920	0.13559389
66	0x3e05440f	0.13014244
67	0x3dfb3e6c	0.122677654
68	0x00000000	0.0
69	0x3e1942ee	0.14966938
70	0x3c3d918b	0.011570345
71	0x3dee93ad	0.11649261
72	0x3e0ef98c	0.13962382
73	0x3d00cab6	0.03144332
74	0xb8bdcfa9	-9.050902e-05
75	0x3e0ec5d6	0.13942656
76	0x3d139377	0.036029305
77	0x3be525b3	0.0069930195
78	0x3b510688	0.0031894762
79	0x3ca965df	0.020678459
80	0x3e200e91	0.15630557
81	0x3d9ade67	0.07561951
82	0xb8cb4f61	-9.69458e-05
83	0xb90ddeca	-0.00013529803
84	0x3e127c7b	0.14305298
85	0x00000000	0.0
86	0x3ce1525e	0.027505096
87	0x3cd7638d	0.026292587
88	0x3b8fd8b1	0.0043898453
89	0xb91f3b80	-0.00015185587
90	0x3c50fbca	0.012755344
91	0x3d8008dc	0.0625169
92	0x3d751618	0.059835523
93	0xb9161738	-0.00014313764
94	0x3c804545	0.01565803
95	0xb91daef9	-0.00015037869
96	0x3c5d628c	0.013512265
97	0x00000000	0.0
98	0xb8ee176b	-0.00011353086
99	0x3c0ebc54	0.008711893
100	0x3c9e9880	0.019359827
101	0xb923cfdf	-0.0001562233
102	0x3d935cec	0.07195458
103	0x3e07827f	0.13233374
104	0x3cb4e2b3	0.022080755
105	0x3c39ff1f	0.0113523295
106	0x3c68e8cd	0.01421566
107	0x3c70361b	0.014661337
108	0x3cbd0dcf	0.023077874
109	0x3dc7c46e	0.09754263
110	0x3db80caa	0.089867905
111	0x3e338016	0.1752933
112	0x00000000	0.0
113	0x00000000	0.0
114	0x3db69e9c	0.08916971
115	0x3c2cce23	0.010547194
116	0x3d18d50c	0.037312552
117	0xb8c20de9	-9.253232e-05
118	0x3cb588b5	0.022159914
119	0x00000000	0.0
120	0x3c9a1cad	0.018812502
121	0x00000000	0.0
122	0xb8c802bf	-9.537255e-05
123	0x3d83ab59	0.06429166
124	0x3d08b987	0.033380058
125	0x00000000	0.0
126	0xb91f604a	-0.00015199292
127	0x3c5d1f65	0.013496255
128	0x3c490677	0.012269608
129	0x3e12660d	0.14296742
130	0x3e1713db	0.14753668
131	0x3ccc1184	0.024910696
132	0x3df02604	0.11726001
133	0x3e00f021	0.12591602
134	0x3e02dceb	0.12779586
135	0x3dd49ee9	0.10381872
136	0x3ccab078	0.02474235
137	0xbcbecbdc	-0.023290567
138	0x3cb8a4eb	0.022539577
139	0x3e3499b8	0.17636764
140	0x3c309a17	0.010778925
141	0x3c74ee88	0.014949448
142	0x3cff30fc	0.031151287
143	0x00000000	0.0
144	0x3e105bb6	0.14097485
145	0xb99279db	-0.0002793808
146	0x3cfc7b5d	0.030820543
147	0xb9132f69	-0.00014036674
148	0x3e352c40	0.17692661
149	0xb929d4a9	-0.00016196318
150	0xb9432351	-0.00018609806
151	0x3c8d427b	0.017243614
152	0xb88961ce	-6.5508866e-05
153	0x3ca7cded	0.020483935
154	0x3bc69f88	0.006061498
155	0x00000000	0.0
156	0x00000000	0.0
157	0xb8ea8ca9	-0.000111841895
158	0xb8ffe29f	-0.00012201559
159	0xb894925e	-7.084453e-05
160	0x3cd25202	0.02567387
161	0x3e02ea42	0.12784675
162	0x3e0207df	0.12698315
163	0x00000000	0.0
164	0x3c87e718	0.016589686
165	0x00000000	0.0
166	0x00000000	0.0
167	0x00000000	0.0
168	0xbdaa9e38	-0.08330959
169	0x3cebdd03	0.02879191
170	0x3cd187ab	0.025577387
171	0x00000000	0.0
172	0x3dab550b	0.0836583
173	0x3e0a1381	0.13484003
174	0x3d7fce9a	0.06245289
175	0xb8cf8d7c	-9.896883e-05
176	0x3ce8c0a8	0.028412178
177	0x00000000	0.0
178	0xb8a52285	-7.874243e-05
179	0x3def3343	0.11679699
180	0x3ca50267	0.020142747
181	0x3cc200f6	0.023682099
182	0xb92a1f33	-0.00016224086
183	0xb8adf9d5	-8.295818e-05
184	0x3bb59c62	0.005542324
185	0x3c5cdf88	0.013481028
186	0xb93e6e1c	-0.00018160831
187	0x00000000	0.0
188	0x3c151790	0.009099856
189	0x3e376584	0.17909819
190	0x3e31042a	0.17286745
191	0xb8591311	-5.175459e-05
192	0x3e05dd62	0.13072732
193	0xb90ed65b	-0.00013622029
194	0x3c7f5291	0.01558365
195	0x3c4e3be8	0.012587525
196	0x3c308274	0.01077329
197	0x3cca4e38	0.0246955
198	0x3e050d19	0.12993278
199	0x3c23bf7b	0.009994383
200	0xb95e88de	-0.00021222557
201	0x3ddde837	0.10835307
202	0x00000000	0.0
203	0xb844138f	-4.6748257e-05
204	0xb9525e08	-0.0002006219
205	0x3c231a69	0.009955027
206	0xb8bfccdb	-9.145747e-05
207	0x3ccd44b0	0.025057167
208	0x00000000	0.0
209	0x3e06ac08	0.13151562
210	0xb9169798	-0.00014361588
211	0x3c5be46b	0.013421158
212	0x00000000	0.0
213	0x3cc2c29c	0.023774438
214	0x3cbfb28e	0.023400571
215	0x3bf5093c	0.0074779075
216	0x3e05c42f	0.1306312

regional_head.0.weight f4 [98, 217]
0	0xbac16ae1	-0.0014756584
1	0x3ce8c08c	0.028412126
2	0x390c1adc	0.00013361446
3	0x3c06736c	0.00820623
4	0x3bdcc45b	0.0067372746
5	0x3c243b5b	0.010023917
6	0x3b1a951c	0.0023587411
7	0x38618390	5.3766707e-05
8	0x3ca41332	0.020028684
9	0x3d373f93	0.044738363
10	0xb8f481b3	-0.00011658985
11	0x3b390261	0.0028230178
12	0xbab6c399	-0.0013943791
13	0xb9a4a0ec	-0.00031400414
14	0x3a9c4689	0.0011922877
15	0xb98db2b6	-0.00027026766
16	0xbb93910b	-0.0045033745
17	0x3ca57c33	0.020200824
18	0xb89c50bb	-7.453697e-05
19	0xbb614678	-0.0034374278
20	0x38de1b0d	0.000105908235
21	0x3ce04afc	0.027379505
22	0x3acd766d	0.0015675552
23	0x3a910ed4	0.0011067041
24	0xbb2c2a4c	-0.0026270328
25	0xbac1062e	-0.0014726573
26	0x3c50a4f7	0.012734643
27	0x3b04f579	0.0020287915
28	0x3a6e81d5	0.0009098326
29	0x3abea79e	0.0014545803
30	0xb9ec1e76	-0.00045036123
31	0x3bc63e5c	0.0060499143
32	0x3ccd6553	0.02507273
33	0x3d78f4bc	0.060780272
34	0x3c792ca2	0.015208395
35	0xba07fe26	-0.00051877124
36	0xbb929526	-0.0044733463
37	0x3a248c44	0.0006277005
38	0x3c9eb90e	0.01937535
39	0x3c1884d8	0.009309016
40	0x3d5ae6ff	0.05344295
41	0x3b8a08fd	0.0042124973
42	0xbc122a16	-0.008921167
43	0x3d8864c6	0.06659846
44	0x3b4786c8	0.0030445326
45	0x3b208ad3	0.0024496808
46	0x3c268a3c	0.010164794
47	0x3d56aded	0.052411962
48	0x3d6436fa	0.055716492
49	0xba9c10e0	-0.0011906885
50	0xba997f18	-0.001171085
51	0xbaba951b	-0.0014235111
52	0x3d7220da	0.05911336
53	0xbb91ba8f	-0.0044472883
54	0xb92c9c93	-0.00016461527
55	0x3a7cba01	0.0009640754
56	0x3c16310d	0.009166968
57	0x3d6b4aa9	0.05744425
58	0xbaae4ea8	-0.0013298588
59	0xbb6308e3	-0.0034642748
60	0x3c1d1761	0.0095880935
61	0xb9ba3b41	-0.00035520832
62	0x3e3dbdfd	0.18529506
63	0x39af427d	0.0003342814
64	0xba9b1a03	-0.0011833314
65	0x3b7f2daa	0.003893713
66	0x39203992	0.00015280236
67	0xbb3f82e8	-0.0029222313
68	0xb9b50b7d	-0.0003453157
69	0x3d0cc5f6	0.034368478
70	0x3c22b69a	0.009931231
71	0x3e07cb4e	0.13261148
72	0x3bc3ab9c	0.005971385
73	0x3cfe5a76	0.031048995
74	0x3a2364dc	0.0006232986
75	0x3c00858a	0.007844338
76	0x3d3d828d	0.04626708
77	0x38d5abb2	0.00010188612
78	0x3b02063f	0.0019840149
79	0x3c330076	0.010925403
80	0x3d3c0f1b	0.045912843
81	0x3d34cf32	0.04414291
82	0xba024eb2	-0.0004970833
83	0xb98e2724	-0.00027113513
84	0x3c4c8537	0.012482933
85	0x3aa8aefd	0.0012869533
86	0x3c11aca7	0.008891261
87	0x3b9e53ac	0.004831752
88	0xbb766011	-0.003759388
89	0xbb6c7978	-0.0036083143
90	0xb998c2af	-0.0002913675
91	0x3d0122ef	0.031527456
92	0x3cbf9fa8	0.02339156
93	0x39c40239	0.0003738569
94	0xbbfdc8c1	-0.007744879
95	0x3a1fd1c5	0.0006096627
96	0xbc088805	-0.008333211
97	0x392858c4	0.00016054796
98	0xb8b44789	-8.596393e-05
99	0x3b3ea4cd	0.0029089928
100	0x3ce9297f	0.02846217
101	0xbaa2e780	-0.0012428612
102	0x3d2dad64	0.042401686
103	0x3b102bc1	0.0021998736
104	0x3a5ea1d0	0.000849274
105	0x3c0e2b99	0.008677387
106	0xbbbc8ec5	-0.005754324
107	0x3ae1d1a1	0.0017228612
108	0x3c3f8e9b	0.011691715
109	0x3d8c2adc	0.06844112
110	0x3d84d454	0.06485811
111	0x3cba0391	0.022706779
112	0x3a9cb186	0.0011954762
113	0x3adde68e	0.0016929673
114	0x3d8916ef	0.06693827
115	0x3c188014	0.00930788
116	0x3d33dd57	0.043912258
117	0x3a671437	0.0008814963
118	0xbb48cc85	-0.0030639481
119	0x39b05f1c	0.00033640198
120	0x3be2b8b8	0.006918993
121	0xbae494e6	-0.0017439395
122	0xbb281977	-0.0025649944
123	0x3d1e9184	0.038712993
124	0x3cef4a68	0.029210284
125	0xbaf0d76b	-0.0018374746
126	0xbb36f01e	-0.0027914117
127	0x3c61f7ef	0.013792022
128	0x3b01088d	0.0019688935
129	0x3c7e990f	0.015539422
130	0x3cd48706	0.02594329
131	0x3c13006d	0.0089722695
132	0xbaa692d2	-0.0012708551
133	0xba9f7d89	-0.001216815
134	0xbb13c9a4	-0.0022550607
135	0x3dcf06b1	0.10108698
136	0x3c889036	0.016670328
137	0xbc82364c	-0.015895031
138	0x3bf0e0b8	0.0073510073
139	0x3de18bfa	0.110130265
140	0x3b8cad02	0.004293085
141	0xbc110d6a	-0.008853296
142	0x3cef0abe	0.029179927
143	0x3a4a0a1c	0.0007707195
144	0x3c003d5d	0.00782713
145	0x3b3f885f	0.002922557
146	0x3cf94444	0.03042806
147	0x38ab2648	8.161046e-05
148	0x3d5f7443	0.054554235
149	0xbb2272d0	-0.0024787672
150	0xba43702a	-0.00074553734
151	0xbba38266	-0.00498991
152	0xba874fa9	-0.0010323423
153	0xba76a906	-0.0009409342
154	0xbb3b7a4f	-0.0028606837
155	0x399e9b06	0.0003025161
156	0xba008088	-0.0004901965
157	0xb9ee7597	-0.0004548251
158	0x3b21a833	0.0024666905
159	0x3a584703	0.00082503277
160	0x3bd38682	0.0064552436
161	0x3b4ee2d1	0.0031568299
162	0x3b1223ba	0.0022299127
163	0x389b4d47	7.40537e-05
164	0xbbcb0b0d	-0.0061963857
165	0x3a0278f0	0.00049771275
166	0xb7810bc3	-1.5383475e-05
167	0xba735cc0	-0.0009283535
168	0xbd3966af	-0.045263942
169	0x3cd9252d	0.026506985
170	0x3b8cd743	0.004298122
171	0x39dfb500	0.0004266873
172	0x3d62a86c	0.0553364
173	0x3b5fdfae	0.0034160423
174	0x3d0439e7	0.032281782
175	0x39c09eb8	0.00036739348
176	0x3c479f0e	0.012183918
177	0xb9ab2df4	-0.000326499
178	0xb988b6d0	-0.00026076147
179	0xbb9a2146	-0.0047036735
180	0xbb078315	-0.0020677496
181	0x3b0d5b86	0.0021569445
182	0xb9eabb2e	-0.00044771418
183	0xba66a99a	-0.00087990763
184	0xbae89a9d	-0.0017746274
185	0x3c8a09c1	0.016850354
186	0x3b404174	0.0029335888
187	0xba56627c	-0.00081781275
188	0xbb83d90f	-0.004023678
189	0x3d8aa296	0.06769292
190	0x3d2974c8	0.041371137
191	0xbaa967c4	-0.0012924601
192	0x39faac3f	0.0004781205
193	0x3682f533	3.902847e-06
194	0x3c89d1cf	0.016823677
195	0xbbcabc29	-0.006186981
196	0x3c48024e	0.012207581
197	0x3bfd038f	0.0077213715
198	0x3ba9adfc	0.0051782113
199	0xbc7bc35d	-0.015366402
200	0x3ab33d53	0.0013674892
201	0x3d73913b	0.059464674
202	0x3b1b8dd0	0.002373565
203	0xb9f2e699	-0.00046329646
204	0xb9eaf68a	-0.00044815644
205	0x3b1ebe7a	0.002422242
206	0x3a454e6d	0.000752664
207	0x3c8ccc04	0.017187126
208	0x3a995a37	0.001169986
209	0x3afad088	0.0019135633
210	0xb9e295b8	-0.00043217628
211	0x3c3f0511	0.011658923
212	0xbaa8da6d	-0.0012882479
213	0x3a880fd3	0.0010380693
214	0x3a874716	0.0010320868
215	0xbb17327c	-0.0023070863
216	0x3e2cf1d0	0.16889119
217	0x3af588e1	0.001873281
218	0x3d02c5af	0.031926807
219	0xb9ce132e	-0.00039305672
220	0x3c07262d	0.008248848
221	0x3bd03c20	0.0063548237
222	0x3be7e59f	0.0070769335
223	0x397b7c17	0.00023983452
224	0x3b06faf8	0.0020596366
225	0x3c979de1	0.0185079
226	0x3d219ea2	0.039457925
227	0xba537098	-0.0008065789
228	0x3b9ffc24	0.0048823524
229	0xbaea733a	-0.0017887123
230	0xbb764298	-0.0037576314
231	0xbaaff15e	-0.0013423373
232	0xba5263fd	-0.00080257637
233	0xbaf555a4	-0.001871754
234	0x3c894b6d	0.016759599
235	0x39aea93b	0.00033313953
236	0x39369412	0.00017412033
237	0xbb0fde74	-0.002195266
238	0x3cd492eb	0.025948962
239	0xbb6cdf33	-0.003614378
240	0x3a35be54	0.0006932963
241	0xb9856c68	-0.00025448506
242	0x381db4d2	3.760012e-05
243	0x3bd628c5	0.006535622
244	0x3aa942cc	0.0012913584
245	0xba3d517b	-0.00072219194
246	0x3b06faea	0.0020596334
247	0xbaf7c611	-0.0018903633
248	0x3c02e59d	0.007989314
249	0x3cd39c9e	0.025831517
250	0x3d832c07	0.06404882
251	0x3c378660	0.011201471
252	0x3a786f1e	0.0009477007
253	0xbc27efac	-0.010250013
254	0xba17867f	-0.00057802344
255	0x3c8ee0c7	0.017441167

regional_head.0.bias f4 [98]
0	0x3dc3e584	0.09565261
1	0x3db804f0	0.08985317
2	0x3dcbe3b7	0.099555425
3	0x3dce8af4	0.10085097
4	0x3dd7d2bf	0.105382435
5	0x3de44683	0.111462615
6	0x3dcce21c	0.100040644
7	0x3dd2e9d5	0.10298506
8	0x3deaed94	0.11471096
9	0x3deb78d2	0.11497654
10	0x3dbfa676	0.09357922
11	0x3dc90d90	0.0981704
12	0x3dc3eaf6	0.095662996
13	0x3dc492d0	0.09598315
14	0x3dda84ce	0.10669862
15	0x3dcc549f	0.09977078
16	0x3de787cc	0.11305198
17	0x3dd8e8b8	0.105912626
18	0x3dd04477	0.10169309
19	0x3dc84a91	0.097798474
20	0x3dda568e	0.1066104
21	0x3de7fc2d	0.113273956
22	0x3dd99919	0.10624904
23	0x3ddd870e	0.10816775
24	0x3de687eb	0.11256393
25	0x3df490e4	0.11941698
26	0x3ddf967f	0.10917377
27	0x3ddad982	0.106860176
28	0x3df584cb	0.11988219
29	0x3def845a	0.11695166
30	0x3e0630f2	0.13104609
31	0x3dfedfc8	0.12445027
32	0x3dfdfbe5	0.12401561
33	0x3df69ccc	0.120416254
34	0x3e06e0fa	0.13171759
35	0x3deaec01	0.114707954
36	0x3df40469	0.11914904
37	0x3de6b0e5	0.11264209
38	0x3de5553c	0.11197898
39	0x3dcd2d9d	0.10018466
40	0x3dc4c9df	0.09608816
41	0x3dc24b92	0.0948707
42	0x3dfdbc15	0.123893894
43	0x3de5791d	0.11204741
44	0x3de190de	0.11013959
45	0x3dc72a8f	0.09724914
46	0x3dec068a	0.11524685
47	0x3deb989d	0.11503718
48	0x3dbefad6	0.09325187
49	0x3db8d70c	0.09025392
50	0x3dca33dd	0.098731734
51	0x3db68dea	0.08913787
52	0x3de4b176	0.111666605
53	0x3dcd100b	0.100128256
54	0x3df3a4ef	0.11896693
55	0x3dd716e8	0.10502416
56	0x3dc051b9	0.09390587
57	0x3dbb5e23	0.091488145
58	0x3dc12e0c	0.09432611
59	0x3daea14f	0.08526861
60	0x3dc4db3c	0.09612128
61	0x3dbdefd9	0.09274263
62	0x3dc692cd	0.09695969
63	0x3dbb3200	0.09140396
64	0x3dc54af0	0.09633434
65	0x3db1aecc	0.08675918
66	0x3de01bf0	0.10942829
67	0x3dd21ad8	0.10259026
68	0x3dbc4a22	0.09193827
69	0x3db97e29	0.09057266
70	0x3de5758a	0.112040594
71	0x3ddaab2b	0.10677179
72	0x3dc41544	0.095743686
73	0x3dd585a3	0.1042588
74	0x3d8df516	0.06931512
75	0x3d9dea21	0.07710672
76	0x3ddbb562	0.107279554
77	0x3de6aed4	0.112638146
78	0x3dd24f55	0.10269038
79	0x3dc69eb5	0.0969824
80	0x3dc2a21e	0.09503578
81	0x3dbe474b	0.09290942
82	0x3dd7d60e	0.105388746
83	0x3dc1b12e	0.094576225
84	0x3dca535c	0.09879181
85	0x3dc97dc3	0.0983844
86	0x3dda12d4	0.106481224
87	0x3dbe8fb6	0.093047544
88	0x3dd95dc9	0.10613591
89	0x3dd4908c	0.10379133
90	0x3ddeb83e	0.10874985
91	0x3dbd35ae	0.09238754
92	0x3db9fe76	0.09081738
93	0x3dc9c2ea	0.0985163
94	0x3de59e4e	0.11211835
95	0x3dfeebac	0.124472946
96	0x3ddf58bf	0.10905599
97	0x3dbccaf7	0.092184

positivity_head.0.weight f4 [2, 217]
0	0x3b17fda4	0.0023191953
1	0x3eee1577	0.4650075
2	0xba1d1884	-0.0005992728
3	0x3e5ab870	0.2135942
4	0xbd689330	-0.056780994
5	0x3ee301d5	0.44337335
6	0x385fe292	5.3378353e-05
7	0xba958d28	-0.0011409866
8	0x3e2d2558	0.16908777
9	0x3e44350b	0.1916086
10	0xbb8dc08a	-0.004325931
11	0x3e9d955c	0.30778015
12	0x3e3bf58d	0.18355389
13	0x3e96dabd	0.2946376
14	0xbb182b68	-0.0023219232
15	0x3a317ea6	0.0006770886
16	0x3e8e4f39	0.27794817
17	0x3ee25047	0.44201872
18	0xbb30f105	-0.0026999128
19	0x3e8c2c26	0.27377433
20	0x39576da4	0.00020544842
21	0x3ea7976a	0.32732707
22	0x3e419a99	0.1890663
23	0xb9ee4992	-0.00045449712
24	0x3e9775a0	0.29581928
25	0xb92b5759	-0.0001634037
26	0x3ee00444	0.43753254
27	0x3e580520	0.21095705
28	0xbb20c46d	-0.0024531141
29	0x3af352b7	0.001856408
30	0x3b1f66a1	0.0024322646
31	0x3e5110f2	0.2041662
32	0xbde844f6	-0.11341278
33	0xbea4669b	-0.32109532
34	0x3e83317f	0.256237
35	0x3ea65a37	0.32490703
36	0x3e6b60b5	0.2298611
37	0xbaf5decf	-0.0018758419
38	0xbdbe413b	-0.092897855
39	0x3e8f15f2	0.2794643
40	0xbed6a0f7	-0.4191968
41	0x3ea0deae	0.3141989
42	0x3e75ed8d	0.240164
43	0x3e162eeb	0.14666335
44	0x3e9d7523	0.3075343
45	0xbd4f9ce8	-0.050686747
46	0x3e91f16b	0.285045
47	0x3f042848	0.51623964
48	0xbea34f1f	-0.31896302
49	0x3e9f8eca	0.31163627
50	0xbd421568	-0.047383696
51	0xbad86a12	-0.0016511104
52	0x3e17a2bf	0.14808176
53	0x3e355197	0.17706905
54	0x3a4cf009	0.00078177504
55	0xb9c94307	-0.00038387647
56	0xbd864d5e	-0.06557725
57	0x3e132d0e	0.14372656
58	0x3b1dac7a	0.0024059103
59	0x3e8bd240	0.27308846
60	0x3e5ffa57	0.21872841
61	0xb9ab23fe	-0.00032642478
62	0xbdbcd7c5	-0.09220842
63	0xbb068f9c	-0.0020532375
64	0x39ab9f94	0.00032734557
65	0xbd5fdd2f	-0.054654296
66	0xbd42825d	-0.047487605
67	0xbd3787af	-0.044807132
68	0x3a327d2d	0.0006808814
69	0xbe05dc67	-0.13072358
70	0x3e88c56a	0.26713115
71	0x3e11eec1	0.14251234
72	0xbd735839	-0.059410308
73	0x3eb39a4e	0.35078663
74	0xb98b8fac	-0.0002661919
75	0xbd8124f7	-0.063058786
76	0x3f001629	0.50033814
77	0x3e299c7a	0.16563597
78	0x3e397ef8	0.18114841
79	0x3ea1cde7	0.31602404
80	0xbe0219d8	-0.12705171
81	0x3e1fd794	0.1560958
82	0x381a5e5e	3.6804347e-05
83	0x395f208e	0.00021279065
84	0xbd946f12	-0.072477475
85	0x3a5a52c2	0.0008328372
86	0x3eb88089	0.36035565
87	0x3eb12dc3	0.34605226
88	0x3e1ffe9a	0.15624467
89	0x3a8d50a6	0.0010781481
90	0x3e4e5039	0.2014779
91	0x3e177f37	0.14794622
92	0x3e2f3ffd	0.17114253
93	0x3aa2940b	0.0012403739
94	0x3e673f7d	0.22582813
95	0xb975ce68	-0.00023441913
96	0x3e711d19	0.23546256
97	0xbad70685	-0.0016405141
98	0xb92e513b	-0.00016624194
99	0x3e4bee36	0.19915089
100	0x3f01cb53	0.50700873
101	0xba0155c7	-0.00049337413
102	0x3e1f6424	0.15565544
103	0xbd48d9de	-0.0490359
104	0x3ea297a6	0.31756324
105	0x3e65c5f1	0.2243879
106	0x3e85475d	0.26031008
107	0x3e59b4b3	0.21260338
108	0x3ea5e944	0.3240453
109	0x3e0d709f	0.13812493
110	0x3e18c782	0.14919856
111	0xbedf5f72	-0.43627506
112	0xb804f546	-3.169968e-05
113	0xba72d0ef	-0.0009262701
114	0x3e1f4b50	0.15556073
115	0x3e581062	0.211
116	0x3eb44bff	0.3521423
117	0xb91b231e	-0.00014795034
118	0x3e9c540b	0.3053287
119	0x3689931c	4.100044e-06
120	0x3e9c451a	0.3052147
121	0xbab07f66	-0.0013465702
122	0x39f2c5d6	0.00046305236
123	0x3e396aff	0.18107222
124	0x3eaa4722	0.33257395
125	0x3965c170	0.00021911203
126	0xba67667b	-0.00088272215
127	0x3e655e08	0.22399151
128	0x3e4ea388	0.2017957
129	0xbda117fe	-0.07865904
130	0xbdedf239	-0.11618466
131	0x3e91b040	0.2845478
132	0xbd3b1b21	-0.04568017
133	0xbd3ab1f6	-0.045579873
134	0xbd3dfe78	-0.04638526
135	0x3e1d094b	0.15335576
136	0x3eeaf6a4	0.45891297
137	0x3e0e893f	0.13919543
138	0x3eddfed8	0.43358493
139	0xbea2a95d	-0.3176984
140	0x3e5333f6	0.2062529
141	0x3e8b11d7	0.27162048
142	0x3e8954cc	0.26822507
143	0x3aec24fc	0.0018016393
144	0xbd899699	-0.06718177
145	0xbafed3f0	-0.0019441824
146	0x3eb30a68	0.34968877
147	0xbaf47c8e	-0.0018652843
148	0xbe9e8c94	-0.30966628
149	0x39887c96	0.00026032765
150	0x38c5d1ee	9.4327945e-05
151	0x3e8d89e8	0.27644277
152	0xba2451c5	-0.0006268288
153	0x3e9e81ea	0.30958492
154	0x3e2fea4a	0.17179218
155	0xbb61f0ca	-0.0034475797
156	0x3aaa0725	0.00129721
157	0xbb2740fd	-0.0025520914
158	0xbafb95ee	-0.0019194463
159	0xb940303f	-0.0001832852
160	0x3eabcb3a	0.33553487
161	0xbd3d3f64	-0.046203032
162	0xbd4185fb	-0.047246914
163	0xbab1cef3	-0.0013565704
164	0x3e8a607c	0.27026737
165	0xb93ac633	-0.00017812177
166	0xba1018b8	-0.00054968474
167	0x3ae3e327	0.0017386422
168	0x3e1aab46	0.15104398
169	0x3eadbc90	0.33932924
170	0x3eaeba5d	0.3412656
171	0x390ccd3c	0.00013427896
172	0x3e1afede	0.15136287
173	0xbd58fbae	-0.052974395
174	0x3e321bd4	0.17393428
175	0xb99ffe42	-0.0003051628
176	0x3eb434bf	0.35196492
177	0xb9c26bcf	-0.00037082887
178	0xbae066d3	-0.0017120488
179	0xbd3092a8	-0.043108612
180	0x3e9341c1	0.28761104
181	0x3e49f364	0.19721752
182	0xb95844e0	-0.00020625023
183	0xba211de2	-0.00061461155
184	0x3e433641	0.19063665
185	0x3e8e9193	0.2784544
186	0x3a9e4ad2	0.0012076742
187	0xbada3a0a	-0.0016649377
188	0x3e4b4c3c	0.198533
189	0xbe6cd2ab	-0.23127238
190	0xbeb22e79	-0.3480108
191	0x37abaff6	2.0466727e-05
192	0xbd47c948	-0.04877594
193	0xba9218f9	-0.0011146358
194	0x3e8d93e5	0.27651897
195	0x3e7e0a2f	0.24808572
196	0x3e8f491c	0.27985466
197	0x3eab9e68	0.33519292
198	0xbd40e888	-0.04709676
199	0x3f0a38cf	0.53992933
200	0x3a84bfda	0.0010127977
201	0x3dd18df1	0.10232151
202	0xba9ec170	-0.0012112092
203	0xb98da78b	-0.00027018445
204	0xb99c1618	-0.000297711
205	0x3e5b540c	0.2141878
206	0xbaa466f5	-0.0012542891
207	0x3e88deca	0.26732475
208	0x39a85e45	0.00032113693
209	0xbd441e34	-0.047880366
210	0x3aad0f53	0.001320342
211	0x3e648f69	0.22320332
212	0x3a27b9c4	0.00063982257
213	0x3ea45cad	0.32101956
214	0x3ea0eac6	0.31429118
215	0x3e350f03	0.17681508
216	0x3d873ebe	0.06603764
217	0x39053edf	0.0001270729
218	0xbeee97e1	-0.4660025
219	0xb9e4b4fc	-0.00043622393
220	0xbe5b0aab	-0.21390788
221	0x3d69b379	0.057055924
222	0xbee257ac	-0.44207513
223	0xbb4e98d4	-0.0031524198
224	0xba869167	-0.0010266722
225	0xbe2920b5	-0.16516383
226	0xbe428c11	-0.18998744
227	0x39c48022	0.000374795
228	0xbe9f139b	-0.31069645
229	0xbe3cd4bc	-0.18440527
230	0xbe9795fb	-0.29606614
231	0xbafe9aba	-0.0019424774
232	0x3a9b215d	0.0011835505
233	0xbe8d238a	-0.27566177
234	0xbee1d9b8	-0.4411142
235	0xbac62818	-0.001511815
236	0xbe8adea5	-0.2712299
237	0xba84c7bd	-0.0010130327
238	0xbea7b2e3	-0.32753667
239	0xbe4291e4	-0.19000965
240	0xbaae87de	-0.0013315638
241	0xbe97e92c	-0.29670084
242	0x3af1e340	0.0018454567
243	0xbedf6f53	-0.4363962
244	0xbe5694f8	-0.20955265
245	0xba35576d	-0.00069176295
246	0xba7b72bb	-0.00095919863
247	0xbae17d04	-0.0017203395
248	0xbe4fd01f	-0.20294236
249	0x3deb1c23	0.11479976
250	0x3ea59d98	0.32346797
251	0xbe8172b9	-0.2528284
252	0xbea5283e	-0.32257265
253	0xbe6c844e	-0.23097345
254	0xbac6be80	-0.0015162975
255	0x3dbaac24	0.091148645

positivity_head.0.bias f4 [2]
0	0xbcd650dc	-0.026161604
1	0x3cd65070	0.026161402

exp_avg f4 [217, 209]
0	0x00000000	0.0
1	0x00000000	0.0
2	0x00000000	0.0
3	0x00000000	0.0
4	0x00000000	0.0
5	0x00000000	0.0
6	0x00000000	0.0
7	0x00000000	0.0
8	0x00000000	0.0
9	0x00000000	0.0
10	0x00000000	0.0
11	0x00000000	0.0
12	0x00000000	0.0
13	0x00000000	0.0
14	0x00000000	0.0
15	0x00000000	0.0
16	0x00000000	0.0
17	0x00000000	0.0
18	0x00000000	0.0
19	0x00000000	0.0
20	0x00000000	0.0
21	0x00000000	0.0
22	0x00000000	0.0
23	0x00000000	0.0
24	0x00000000	0.0
25	0x00000000	0.0
26	0x00000000	0.0
27	0x00000000	0.0
28	0x00000000	0.0
29	0x00000000	0.0
30	0x00000000	0.0
31	0x00000000	0.0
32	0x00000000	0.0
33	0x00000000	0.0
34	0x00000000	0.0
35	0x00000000	0.0
36	0x00000000	0.0
37	0x00000000	0.0
38	0x00000000	0.0
39	0x00000000	0.0
40	0x00000000	0.0
41	0x00000000	0.0
42	0x00000000	0.0
43	0x00000000	0.0
44	0x00000000	0.0
45	0x00000000	0.0
46	0x00000000	0.0
47	0x00000000	0.0
48	0x00000000	0.0
49	0x00000000	0.0
50	0x00000000	0.0
51	0x00000000	0.0
52	0x00000000	0.0
53	0x00000000	0.0
54	0x00000000	0.0
55	0x00000000	0.0
56	0x00000000	0.0
57	0x00000000	0.0
58	0x00000000	0.0
59	0x00000000	0.0
60	0x00000000	0.0
61	0x00000000	0.0
62	0x00000000	0.0
63	0x00000000	0.0
64	0x00000000	0.0
65	0x00000000	0.0
66	0x00000000	0.0
67	0x00000000	0.0
68	0x00000000	0.0
69	0x00000000	0.0
70	0x00000000	0.0
71	0x00000000	0.0
72	0x00000000	0.0
73	0x00000000	0.0
74	0x00000000	0.0
75	0x00000000	0.0
76	0x00000000	0.0
77	0x00000000	0.0
78	0x00000000	0.0
79	0x00000000	0.0
80	0x00000000	0.0
81	0x00000000	0.0
82	0x00000000	0.0
83	0x00000000	0.0
84	0x00000000	0.0
85	0x00000000	0.0
86	0x00000000	0.0
87	0x00000000	0.0
88	0x00000000	0.0
89	0x00000000	0.0
90	0x00000000	0.0
91	0x00000000	0.0
92	0x00000000	0.0
93	0x00000000	0.0
94	0x00000000	0.0
95	0x00000000	0.0
96	0x00000000	0.0
97	0x00000000	0.0
98	0x00000000	0.0
99	0x00000000	0.0
100	0x00000000	0.0
101	0x00000000	0.0
102	0x00000000	0.0
103	0x00000000	0.0
104	0x00000000	0.0
105	0x00000000	0.0
106	0x00000000	0.0
107	0x00000000	0.0
108	0x00000000	0.0
109	0x00000000	0.0
110	0x00000000	0.0
111	0x00000000	0.0
112	0x00000000	0.0
113	0x00000000	0.0
114	0x00000000	0.0
115	0x00000000	0.0
116	0x00000000	0.0
117	0x00000000	0.0
118	0x00000000	0.0
119	0x00000000	0.0
120	0x00000000	0.0
121	0x00000000	0.0
122	0x00000000	0.0
123	0x00000000	0.0
124	0x00000000	0.0
125	0x00000000	0.0
126	0x00000000	0.0
127	0x00000000	0.0
128	0x00000000	0.0
129	0x00000000	0.0
130	0x00000000	0.0
131	0x00000000	0.0
132	0x00000000	0.0
133	0x00000000	0.0
134	0x00000000	0.0
135	0x00000000	0.0
136	0x00000000	0.0
137	0x00000000	0.0
138	0x00000000	0.0
139	0x00000000	0.0
140	0x00000000	0.0
141	0x00000000	0.0
142	0x00000000	0.0
143	0x00000000	0.0
144	0x00000000	0.0
145	0x00000000	0.0
146	0x00000000	0.0
147	0x00000000	0.0
148	0x00000000	0.0
149	0x00000000	0.0
150	0x00000000	0.0
151	0x00000000	0.0
152	0x00000000	0.0
153	0x00000000	0.0
154	0x00000000	0.0
155	0x00000000	0.0
156	0x00000000	0.0
157	0x00000000	0.0
158	0x00000000	0.0
159	0x00000000	0.0
160	0x00000000	0.0
161	0x00000000	0.0
162	0x00000000	0.0
163	0x00000000	0.0
164	0x00000000	0.0
165	0x00000000	0.0
166	0x00000000	0.0
167	0x00000000	0.0
168	0x00000000	0.0
169	0x00000000	0.0
170	0x00000000	0.0
171	0x00000000	0.0
172	0x00000000	0.0
173	0x00000000	0.0
174	0x00000000	0.0
175	0x00000000	0.0
176	0x00000000	0.0
177	0x00000000	0.0
178	0x00000000	0.0
179	0x00000000	0.0
180	0x00000000	0.0
181	0x00000000	0.0
182	0x00000000	0.0
183	0x00000000	0.0
184	0x00000000	0.0
185	0x00000000	0.0
186	0x00000000	0.0
187	0x00000000	0.0
188	0x00000000	0.0
189	0x00000000	0.0
190	0x00000000	0.0
191	0x00000000	0.0
192	0x00000000	0.0
193	0x00000000	0.0
194	0x00000000	0.0
195	0x00000000	0.0
196	0x00000000	0.0
197	0x00000000	0.0
198	0x00000000	0.0
199	0x00000000	0.0
200	0x00000000	0.0
201	0x00000000	0.0
202	0x00000000	0.0
203	0x00000000	0.0
204	0x00000000	0.0
205	0x00000000	0.0
206	0x00000000	0.0
207	0x00000000	0.0
208	0x00000000	0.0
209	0xba089509	-0.0005210196
210	0x386c2614	5.6302248e-05
211	0x3beec89f	0.0072870995
212	0xb8f4be40	-0.000116702635
213	0x3792028d	1.7405744e-05
214	0xb9224c89	-0.00015478035
215	0xb8f2bd5d	-0.00011574731
216	0xb8c7035b	-9.4896845e-05
217	0x3188bb24	3.9793964e-09
218	0xba47243f	-0.00075966486
219	0xba6fb83a	-0.00091445784
220	0xba530fb2	-0.000805135
221	0xba4260ca	-0.00074149354
222	0xba636712	-0.00086747215
223	0xba3bb233	-0.00071600376
224	0xba2c66aa	-0.00065765774
225	0xba3a99a0	-0.0007118229
226	0xba618d72	-0.0008604146
227	0xba51306a	-0.00079799315
228	0xba4f44c4	-0.000790667
229	0xba720e5a	-0.0009233706
230	0xba416e4b	-0.00073788007
231	0xba7fc552	-0.0009756881
232	0xba199bc9	-0.00058597006
233	0xba00d8f8	-0.00049151434
234	0xba15b29d	-0.00057105144
235	0xba170fd1	-0.00057625497
236	0xba12ac14	-0.00055950996
237	0xba47059b	-0.0007592083
238	0xba4c277e	-0.0007787867
239	0xba789f70	-0.0009484207
240	0xba347814	-0.0006884348
241	0xba31ce19	-0.0006782725
242	0xba3db6fc	-0.00072370446
243	0xba484731	-0.0007640003
244	0xba279a37	-0.0006393524
245	0xba3adbfb	-0.00071281166
246	0xba58a97f	-0.0008265003
247	0xba37688a	-0.00069964735
248	0xba50440c	-0.000794471
249	0xba53110b	-0.0008051551
250	0xba97e90b	-0.0011589838
251	0xb9fa1b43	-0.00047704027
252	0xba4e2938	-0.00078644184
253	0xba66fe27	-0.00088116754
254	0xba8370be	-0.0010028107
255	0xba3f168b	-0.0007289431

exp_avg_sq f4 [217, 209]
0	0x00000000	0.0
1	0x00000000	0.0
2	0x00000000	0.0
3	0x00000000	0.0
4	0x00000000	0.0
5	0x00000000	0.0
6	0x00000000	0.0
7	0x00000000	0.0
8	0x00000000	0.0
9	0x00000000	0.0
10	0x00000000	0.0
11	0x00000000	0.0
12	0x00000000	0.0
13	0x00000000	0.0
14	0x00000000	0.0
15	0x00000000	0.0
16	0x00000000	0.0
17	0x00000000	0.0
18	0x00000000	0.0
19	0x00000000	0.0
20	0x00000000	0.0
21	0x00000000	0.0
22	0x00000000	0.0
23	0x00000000	0.0
24	0x00000000	0.0
25	0x00000000	0.0
26	0x00000000	0.0
27	0x00000000	0.0
28	0x00000000	0.0
29	0x00000000	0.0
30	0x00000000	0.0
31	0x00000000	0.0
32	0x00000000	0.0
33	0x00000000	0.0
34	0x00000000	0.0
35	0x00000000	0.0
36	0x00000000	0.0
37	0x00000000	0.0
38	0x00000000	0.0
39	0x00000000	0.0
40	0x00000000	0.0
41	0x00000000	0.0
42	0x00000000	0.0
43	0x00000000	0.0
44	0x00000000	0.0
45	0x00000000	0.0
46	0x00000000	0.0
47	0x00000000	0.0
48	0x00000000	0.0
49	0x00000000	0.0
50	0x00000000	0.0
51	0x00000000	0.0
52	0x00000000	0.0
53	0x00000000	0.0
54	0x00000000	0.0
55	0x00000000	0.0
56	0x00000000	0.0
57	0x00000000	0.0
58	0x00000000	0.0
59	0x00000000	0.0
60	0x00000000	0.0
61	0x00000000	0.0
62	0x00000000	0.0
63	0x00000000	0.0
64	0x00000000	0.0
65	0x00000000	0.0
66	0x00000000	0.0
67	0x00000000	0.0
68	0x00000000	0.0
69	0x00000000	0.0
70	0x00000000	0.0
71	0x00000000	0.0
72	0x00000000	0.0
73	0x00000000	0.0
74	0x00000000	0.0
75	0x00000000	0.0
76	0x00000000	0.0
77	0x00000000	0.0
78	0x00000000	0.0
79	0x00000000	0.0
80	0x00000000	0.0
81	0x00000000	0.0
82	0x00000000	0.0
83	0x00000000	0.0
84	0x00000000	0.0
85	0x00000000	0.0
86	0x00000000	0.0
87	0x00000000	0.0
88	0x00000000	0.0
89	0x00000000	0.0
90	0x00000000	0.0
91	0x00000000	0.0
92	0x00000000	0.0
93	0x00000000	0.0
94	0x00000000	0.0
95	0x00000000	0.0
96	0x00000000	0.0
97	0x00000000	0.0
98	0x00000000	0.0
99	0x00000000	0.0
100	0x00000000	0.0
101	0x00000000	0.0
102	0x00000000	0.0
103	0x00000000	0.0
104	0x00000000	0.0
105	0x00000000	0.0
106	0x00000000	0.0
107	0x00000000	0.0
108	0x00000000	0.0
109	0x00000000	0.0
110	0x00000000	0.0
111	0x00000000	0.0
112	0x00000000	0.0
113	0x00000000	0.0
114	0x00000000	0.0
115	0x00000000	0.0
116	0x00000000	0.0
117	0x00000000	0.0
118	0x00000000	0.0
119	0x00000000	0.0
120	0x00000000	0.0
121	0x00000000	0.0
122	0x00000000	0.0
123	0x00000000	0.0
124	0x00000000	0.0
125	0x00000000	0.0
126	0x00000000	0.0
127	0x00000000	0.0
128	0x00000000	0.0
129	0x00000000	0.0
130	0x00000000	0.0
131	0x00000000	0.0
132	0x00000000	0.0
133	0x00000000	0.0
134	0x00000000	0.0
135	0x00000000	0.0
136	0x00000000	0.0
137	0x00000000	0.0
138	0x00000000	0.0
139	0x00000000	0.0
140	0x00000000	0.0
141	0x00000000	0.0
142	0x00000000	0.0
143	0x00000000	0.0
144	0x00000000	0.0
145	0x00000000	0.0
146	0x00000000	0.0
147	0x00000000	0.0
148	0x00000000	0.0
149	0x00000000	0.0
150	0x00000000	0.0
151	0x00000000	0.0
152	0x00000000	0.0
153	0x00000000	0.0
154	0x00000000	0.0
155	0x00000000	0.0
156	0x00000000	0.0
157	0x00000000	0.0
158	0x00000000	0.0
159	0x00000000	0.0
160	0x00000000	0.0
161	0x00000000	0.0
162	0x00000000	0.0
163	0x00000000	0.0
164	0x00000000	0.0
165	0x00000000	0.0
166	0x00000000	0.0
167	0x00000000	0.0
168	0x00000000	0.0
169	0x00000000	0.0
170	0x00000000	0.0
171	0x00000000	0.0
172	0x00000000	0.0
173	0x00000000	0.0
174	0x00000000	0.0
175	0x00000000	0.0
176	0x00000000	0.0
177	0x00000000	0.0
178	0x00000000	0.0
179	0x00000000	0.0
180	0x00000000	0.0
181	0x00000000	0.0
182	0x00000000	0.0
183	0x00000000	0.0
184	0x00000000	0.0
185	0x00000000	0.0
186	0x00000000	0.0
187	0x00000000	0.0
188	0x00000000	0.0
189	0x00000000	0.0
190	0x00000000	0.0
191	0x00000000	0.0
192	0x00000000	0.0
193	0x00000000	0.0
194	0x00000000	0.0
195	0x00000000	0.0
196	0x00000000	0.0
197	0x00000000	0.0
198	0x00000000	0.0
199	0x00000000	0.0
200	0x00000000	0.0
201	0x00000000	0.0
202	0x00000000	0.0
203	0x00000000	0.0
204	0x00000000	0.0
205	0x00000000	0.0
206	0x00000000	0.0
207	0x00000000	0.0
208	0x00000000	0.0
209	0x380a1a45	3.292623e-05
210	0x378f2c8d	1.7067674e-05
211	0x3b4d2520	0.0031302646
212	0x38011199	3.0772386e-05
213	0x37d5d608	2.5491245e-05
214	0x3630bc8c	2.6335792e-06
215	0x35772331	9.206588e-07
216	0x36470053	2.96535e-06
217	0x2793469c	4.087725e-15
218	0x385b7111	5.231897e-05
219	0x3858525d	5.157512e-05
220	0x38697585	5.5660978e-05
221	0x3830440c	4.2025044e-05
222	0x38351d33	4.3180957e-05
223	0x3822bdfd	3.880075e-05
224	0x382739c9	3.986972e-05
225	0x3856f5a2	5.125034e-05
226	0x3841052a	4.6019595e-05
227	0x382dab6a	4.1406056e-05
228	0x384d2fb0	4.892022e-05
229	0x382f565a	4.1803673e-05
230	0x38239a30	3.9005827e-05
231	0x38398519	4.4231394e-05
232	0x380feb28	3.4312863e-05
233	0x3820c2f9	3.8328555e-05
234	0x3827fbf7	4.0050563e-05
235	0x381209c3	3.4818204e-05
236	0x3821142c	3.8404178e-05
237	0x381a02da	3.6719117e-05
238	0x380bbe86	3.331762e-05
239	0x38302034	4.199166e-05
240	0x37f34ddc	2.9004113e-05
241	0x37fd3f12	3.018932e-05
242	0x38160690	3.57689e-05
243	0x38077aeb	3.2300984e-05
244	0x3806f491	3.217586e-05
245	0x381aabfb	3.687663e-05
246	0x3804fc9e	3.170652e-05
247	0x380b4e94	3.3213364e-05
248	0x386b7706	5.6139215e-05
249	0x3859481f	5.1804e-05
250	0x3855d2e7	5.0979575e-05
251	0x381ec40c	3.785272e-05
252	0x3824a94c	3.9258317e-05
253	0x3835ddd8	4.336037e-05
254	0x3827af58	3.9979204e-05
255	0x3814311e	3.5331694e-05

exp_avg f4 [217]
0	0x00000000	0.0
1	0xb9f3a54e	-0.00046471733
2	0x00000000	0.0
3	0xb980c0b0	-0.00024557626
4	0x38404981	4.5844823e-05
5	0xb9cbfe19	-0.00038908495
6	0x00000000	0.0
7	0x00000000	0.0
8	0xb9333114	-0.00017089053
9	0xb934086e	-0.00017169278
10	0x00000004	6e-45
11	0xb9880e31	-0.00025950515
12	0xb8f11ae3	-0.000114967836
13	0xb9811732	-0.0002462208
14	0x00000004	6e-45
15	0x00000000	0.0
16	0xb9791a42	-0.00023756272
17	0xb995db41	-0.00028582852
18	0x00000000	0.0
19	0xb96f32bd	-0.00022811718
20	0x00000004	6e-45
21	0xb95a6747	-0.00020828574
22	0xb92b5d52	-0.00016342595
23	0x00000000	0.0
24	0xb982e11a	-0.00024963246
25	0x00000000	0.0
26	0xb98c0df0	-0.00026713265
27	0xb90fc5df	-0.00013711255
28	0x00000000	0.0
29	0x00000004	6e-45
30	0x00000004	6e-45
31	0xb9178365	-0.0001444943
32	0x38ca55c0	9.648083e-05
33	0x39c34fb6	0.00037252688
34	0xb91bb28e	-0.00014848469
35	0xb98f490d	-0.00027329513
36	0xb9497e0a	-0.00019215807
37	0x00000004	6e-45
38	0x38a3b333	7.805824e-05
39	0xb99258f6	-0.0002791357
40	0x3a632376	0.0008664647
41	0xb9882d0f	-0.00025973513
42	0xb9467ed5	-0.0001893
43	0xb8f0846a	-0.00011468756
44	0xb983f929	-0.00025171906
45	0x3826cbf9	3.976745e-05
46	0xb97fe2b3	-0.00024403147
47	0xb95225f6	-0.00020041302
48	0x396b51c3	0.00022441805
49	0xb987f1ee	-0.00025929458
50	0x38151acc	3.5549325e-05
51	0x00000000	0.0
52	0xb8f26f83	-0.0001156023
53	0xb946e288	-0.00018967141
54	0x00000004	6e-45
55	0x00000004	6e-45
56	0x385b8aee	5.2343057e-05
57	0xb8efd38a	-0.0001143581
58	0x00000004	6e-45
59	0xb9646326	-0.0002178071
60	0xb9627023	-0.00021594814
61	0x00000000	0.0
62	0x39097aca	0.0001311108
63	0x00000000	0.0
64	0x00000000	0.0
65	0x3834e16c	4.3125285e-05
66	0x381e8562	3.7794358e-05
67	0x380f80ce	3.4213816e-05
68	0x00000000	0.0
69	0x38ea7169	0.00011179114
70	0xb99f26f6	-0.0003035587
71	0xb89ef216	-7.579119e-05
72	0x3850b816	4.9762508e-05
73	0xb98201d7	-0.00024796903
74	0x00000004	6e-45
75	0x38522728	5.010437e-05
76	0xb927e942	-0.00016013256
77	0xb909087c	-0.00013068499
78	0xb932864b	-0.00017025431
79	0xb9355879	-0.00017294464
80	0x38eda239	0.00011331257
81	0xb9041374	-0.00012595748
82	0x00000004	6e-45
83	0x00000004	6e-45
84	0x387e8f16	6.069158e-05
85	0x00000000	0.0
86	0xb99ce7e8	-0.00029927422
87	0xb9968232	-0.00028707233
88	0xb8fb3764	-0.0001197893
89	0x00000004	6e-45
90	0xb92569b5	-0.00015775005
91	0xb8fb8005	-0.00011992458
92	0xb950ffb1	-0.00019931678
93	0x00000004	6e-45
94	0xb93c87b1	-0.00017979626
95	0x00000004	6e-45
96	0xb95e14a2	-0.00021179256
97	0x00000000	0.0
98	0x00000004	6e-45
99	0xb9016367	-0.00012339429
100	0xb91320be	-0.0001403121
101	0x00000004	6e-45
102	0xb908fbbf	-0.00013063753
103	0x38230c14	3.8873477e-05
104	0xb98f7a22	-0.00027366081
105	0xb95d3f01	-0.00021099673
106	0xb961a650	-0.00021519628
107	0xb9631889	-0.00021657547
108	0xb98f3523	-0.00027314675
109	0xb8dbf4c4	-0.00010488325
110	0xb8f7ecf6	-0.00011822015
111	0x3a14e988	0.0005680551
112	0x00000000	0.0
113	0x00000000	0.0
114	0xb903449f	-0.00012518697
115	0xb9083407	-0.00012989352
116	0xb944e742	-0.00018778167
117	0x00000004	6e-45
118	0xb984bb47	-0.00025316534
119	0x00000000	0.0
120	0xb94c5d71	-0.00019489766
121	0x00000000	0.0
122	0x00000004	6e-45
123	0xb9524a82	-0.00020054917
124	0xb95d838d	-0.00021125209
125	0x00000000	0.0
126	0x00000004	6e-45
127	0xb982435f	-0.00024845728
128	0xb9296f16	-0.00016158479
129	0x3888748e	6.506695e-05
130	0x38cf01a1	9.8708326e-05
131	0xb94858b9	-0.00019106538
132	0x380d1dee	3.3644894e-05
133	0x38133f49	3.510647e-05
134	0x3817aca7	3.6162e-05
135	0xb8df42b6	-0.000106458945
136	0xb9684256	-0.00022149956
137	0xb90fbf68	-0.00013708847
138	0xba096abe	-0.0005242041
139	0x39bbde62	0.00035833108
140	0xb90b6a52	-0.0001329568
141	0xb97013e0	-0.00022895588
142	0xb8996e4f	-7.316155e-05
143	0x00000000	0.0
144	0x386a8722	5.59158e-05
145	0x00000004	6e-45
146	0xb95f79be	-0.0002131229
147	0x00000004	6e-45
148	0x39c01b8e	0.00036641624
149	0x00000004	6e-45
150	0x00000004	6e-45
151	0xb96b50c5	-0.00022441435
152	0x00000004	6e-45
153	0xb986969a	-0.0002567068
154	0xb901ef72	-0.00012391599
155	0x00000000	0.0
156	0x00000000	0.0
157	0x00000004	6e-45
158	0x00000004	6e-45
159	0x00000004	6e-45
160	0xb9917c8a	-0.00027749344
161	0x3817ab70	3.616087e-05
162	0x3817bfce	3.6179837e-05
163	0x00000000	0.0
164	0xb9645f7f	-0.0002177935
165	0x00000000	0.0
166	0x00000000	0.0
167	0x00000000	0.0
168	0xb94698a4	-0.00018939615
169	0xb95a161b	-0.00020798335
170	0xb9942a30	-0.00028260192
171	0x00000000	0.0
172	0xb8f86091	-0.000118435484
173	0x382cc113	4.118781e-05
174	0xb9359666	-0.00017317533
175	0x00000004	6e-45
176	0xb98f8a1c	-0.00027377985
177	0x00000000	0.0
178	0x00000004	6e-45
179	0x380c94a2	3.3517026e-05
180	0xb97cfe2c	-0.00024127279
181	0xb90ca711	-0.00013413678
182	0x00000004	6e-45
183	0x00000004	6e-45
184	0xb8eb0015	-0.000112056885
185	0xb953a2b2	-0.00020183137
186	0x00000004	6e-45
187	0x00000000	0.0
188	0xb94bd19a	-0.00019437671
189	0x39455980	0.00018820725
190	0x3903f9cc	0.0001258619
191	0x00000004	6e-45
192	0x38204889	3.8214526e-05
193	0x00000004	6e-45
194	0xb91d86bb	-0.00015022878
195	0xb954ddd7	-0.00020300537
196	0xb9935bae	-0.00028106332
197	0xb9914a68	-0.00027711992
198	0x3819f05a	3.6701887e-05
199	0xba6d5ff0	-0.00090551283
200	0x00000004	6e-45
201	0xb88b85dd	-6.6529705e-05
202	0x00000000	0.0
203	0x00000004	6e-45
204	0x00000004	6e-45
205	0xb8d6bb36	-0.00010239186
206	0x00000004	6e-45
207	0xb8cc43c2	-9.740099e-05
208	0x00000000	0.0
209	0x381db81b	3.760318e-05
210	0x00000004	6e-45
211	0xb97ca4d5	-0.00024093997
212	0x00000000	0.0
213	0xb98d81a6	-0.0002699021
214	0xb988ac3b	-0.00026068263
215	0xb91e4dab	-0.00015096988
216	0x352f4c62	6.530373e-07
